soo_bench/data/model_threelayers2d_TiO2_Ag_TiO2_0.1_transmittance.pt (torch, 44802 bytes, 13 tensors)

layer_first.weight f4 [128, 3]
00000000: 80a7 1b3f a1eb 1d3f 2335 d6bc e53f 023f
00000010: e53a 9abe 64e2 513e 6b18 1abe bd22 c83d
00000020: 85d7 453f afd4 d8be 14ca 3a3f 4895 673d
00000030: 0414 bc3e b949 043e 875d d53e dc2b 83bc
00000040: bf8b ed3f 985b 2439 1c1a 9dbe 6949 e33d
00000050: a1b6 a5be 6866 babe daa3 d1be 019c 0e3e
00000060: 4d56 47bf c971 8abe 6ca0 213d 4137 4ebe
00000070: 2405 f53c 8390 4dbf fe83 fa3e 754a bd3d
00000080: 67ca 153f a24b 1e3e b752 3d3d 0e82 e03e
00000090: e90a 593e b52f b93e ef8d 823e d93e 73be
000000a0: 91e7 233f 236c c4bd 6bc0 af3e e09f a13e
000000b0: 1625 ca3e 4c97 42bf 4cf4 4d3e 936d 373c
000000c0: af87 41bb 1f3c 28be 8ec1 8ebf 4b61 10be
000000d0: eafc 47be 5779 363f 02f2 523e 394a cf3e
000000e0: bbc0 6d3e a5f3 65bd fa9b 513f 0287 67be
000000f0: b43b 0c3e 8c9c 15bf bfe2 443e bf5d 8fbe
00000100: df2f fe3e b612 5fbd 102f ec3e 2516 9bbe
00000110: cde4 ddbe 8d1a 32bf ab49 043f 089d 36bd
00000120: fd1d 223f ac68 1bbf 9406 06bf 390a 96be
00000130: 1f70 9bbe 989e f23e 69dd cd3d 0f75 423f
00000140: 5d8c babe df9e 40bf 3c79 62bd 2a73 943d
00000150: 585d ba3e 9060 57be d4e3 cd3e 1f6d 80bf
00000160: 773c 13be 3e68 533c 05c9 443e 6618 f63c
00000170: ce29 d73e 554d af3e 6941 49bf 11e6 9cbe
00000180: addd 373f 8159 81be b8f5 cebc 459a 51bf
00000190: 5d9f 4dbe ef52 c23d 3b41 58bd 3773 5cbf
000001a0: d572 a13d 358b 07bf cbb9 3cbf 11c1 9cbd
000001b0: b80c f4be aa5b 0ebf 3794 213f 872f f23c
000001c0: 1691 163f 6d02 0dbf aedd 26bf 1976 263e
000001d0: ea1f 843d a224 62bf ab4c 89be 7875 f63b
000001e0: fd73 933d 4d1a 41bf 763c 01bd 4f6c 1dbf
000001f0: c116 b8be 5c34 34be b7a9 81bc 7182 75bc
00000200: 81f3 bc3f b55b 423c 605b 313f 4088 973e
00000210: 3ab4 4cbf 8872 b53e 55dc 893d 53da 31be
00000220: 54b1 37bf 2cd1 20bf a0e5 833e 4799 c83d
00000230: fcb9 8d3e 3853 b4be 1093 873f b275 babe
00000240: b5b2 b33d e56f d13e 7007 f43e f725 903f
00000250: 70c1 6d3e 50c8 e6bb 570a 093f 7341 22be
00000260: 8226 373d 0edb d9be 16ad 253f b5fd e8be
00000270: 72e6 953e a223 9c3e db64 9d3e 6931 d1be
00000280: e200 283f 2006 143d 9717 5e3e 6215 1bbf
00000290: b09f 4c3e fd89 3e3e 5ef5 8bbe 1d81 0c3f
000002a0: 605a e739 3806 13be 0873 63bf 3609 853c
000002b0: ca2c ed3e eb41 a1be 684c 0d3d 6c22 6ebe
000002c0: c200 66bf 0990 d73d 38fc 2e3f 51ef 1fbf
000002d0: 2539 323e a6a3 3c3f 8fbe 483d 11a8 e6bc
000002e0: c3b5 823d 22dd 543f b206 223e 8336 a6bd
000002f0: c79e aabe 9fbc bd3c e880 40bd f608 19bf
00000300: 3ad5 cf3e 299c 263f 6d40 dfbb 04ce 40bf
00000310: b0fb 033d 789a 50bd 61cb 503d 47c0 da3d
00000320: 7ffd 56bf a26d 11be 4a2f 513f 5d67 713e
00000330: c26c 54bd d991 8ebe 5530 1ebf e51b 6dbf
00000340: 2853 45be 11e1 143d 1323 babd 6741 3a3e
00000350: b68a 87bf 905c d9be 0c53 1a3e a06f 083f
00000360: 20b2 383e e522 833e 32e0 9e3e 8f19 bd3b
00000370: 01e8 33bd b7fb 9d3f cafd a5be 2c2a 61be
00000380: fbee 13bf b6bb c13e 6818 063f 6d92 9a3e
00000390: c020 d5be 8989 4cbf 29c1 cabe c932 df3e
000003a0: eebd 0a3f 82d1 f53e 48ad 993e c260 0b3f
000003b0: 19d3 113c 7cb9 c2be 908c 7bbf bf1f debe
000003c0: afaf 0b3f 2375 49be 50c8 87bd dd39 abbd
000003d0: 72fc aa3d 1a45 90bf 6477 0abf c72f d43e
000003e0: bcc5 853d 671a 1d3f e059 8abe 3b29 69be
000003f0: 9ac0 9dbe f65a cabe 28ee b5bd a04e 14bf
0.6080246 0.61687666 -0.026148384 0.50878745 -0.30123058 0.20496517 -0.15048377 0.09772251
0.7728198 -0.42349765 0.72964597 0.05653885 0.3673402 0.12918748 0.41672918 -0.016012125
1.8558272 0.0001567438 -0.30683982 0.11097986 -0.32365897 -0.36406255 -0.4094532 0.13926698
-0.7786606 -0.27039936 0.03945963 -0.20138265 0.029909678 -0.8029863 0.48928827 0.09242717
0.58511966 0.15458539 0.04622146 0.43849224 0.21195568 0.3616921 0.25498912 -0.23754443
0.6402522 -0.09590938 0.3432649 0.31567287 0.3948142 -0.7601211 0.20112723 0.011195558
-0.0029530337 -0.16429184 -1.1152818 -0.14099614 -0.19530073 0.712789 0.20600131 0.40486315
0.23218052 -0.05614056 0.81878626 -0.22610095 0.1369465 -0.58441997 0.19227122 -0.2800121
0.49645898 -0.054461204 0.46129656 -0.30290332 -0.43338624 -0.69571763 0.5167491 -0.04458335
0.6332701 -0.6070659 -0.5235379 -0.29304674 -0.3035898 0.47386622 0.10051996 0.7595987
-0.36435214 -0.7524242 -0.0552914 0.07248528 0.3639934 -0.2103293 0.40212882 -1.0033301
-0.14378534 0.012903271 0.19217308 0.030040931 0.42024082 0.34238687 -0.7861543 -0.30644277
0.71822625 -0.252636 -0.025263652 -0.8187602 -0.20080324 0.094884746 -0.052796584 -0.86113304
0.078832306 -0.5294679 -0.73721 -0.07654012 -0.47665954 -0.5560862 0.6311678 0.029563678
0.58815134 -0.55081826 -0.65182006 0.16255988 0.064513996 -0.8833715 -0.26816306 0.0075213276
0.071998574 -0.75430757 -0.0315518 -0.6149339 -0.3595486 -0.17598099 -0.015827997 -0.014984713
1.4761811 0.011862685 0.6928005 0.29596138 -0.79962504 0.35438943 0.06731478 -0.1736844
-0.71754956 -0.6281917 0.25761127 0.0979486 0.27680957 -0.3521974 1.0591755 -0.3641792
0.0877432 0.4090568 0.47661924 1.1261586 0.23218322 -0.007042922 0.535314 -0.1584528
0.04471446 -0.42549938 0.64717233 -0.45506063 0.29277378 0.30495936 0.3074101 -0.4085801
0.6562635 0.036138654 0.21688686 -0.605795 0.19982791 0.18607326 -0.27335638 0.5488451
0.00044127088 -0.14357841 -0.888474 0.016239744 0.46323234 -0.31495604 0.034496695 -0.23255318
-0.89844906 0.105255194 0.68353605 -0.6247454 0.17404611 0.7368721 0.049009856 -0.028156312
0.063823245 0.8314992 0.15822867 -0.08115866 -0.33324262 0.02316123 -0.046997935 -0.597793
0.40592366 0.6508203 -0.0068131 -0.75314355 0.03222245 -0.050928563 0.050975207 0.10681205
-0.83980554 -0.14201978 0.8171278 0.23574586 -0.051861532 -0.27845648 -0.617925 -0.9262069
-0.19270003 0.036347453 -0.09088721 0.18189012 -1.0589206 -0.42453432 0.15070742 0.53295326
0.180367 0.2561256 0.31030422 0.005770869 -0.043922428 1.2342442 -0.32420188 -0.21988744
-0.5778653 0.37838525 0.5238099 0.3018984 -0.4162655 -0.7989736 -0.39600495 0.43593433
0.5419606 0.48011404 0.30015016 0.54444516 0.008900427 -0.38032138 -0.98261356 -0.43383595
0.54564947 -0.1967359 -0.066300035 -0.08360646 0.08348931 -1.1271088 -0.54088426 0.414427
0.065318555 0.6136841 -0.27021694 -0.22769634 -0.30811006 -0.39522523 -0.08883315 -0.5793247

layer_first.bias f4 [128]
00000000: d853 053c 177b 063f d6dd fbbe c9c4 61be
00000010: dc61 ac3e 0fc9 00be 390b f2bd be68 76be
00000020: 2fc1 cb3e 2afd 903e d07b 3d3e f82a a6be
00000030: 51fb efbe 4ad4 7f3d 601d 2f3e ea7a 88be
00000040: 4c70 25be 39a3 c73e ccdf 3b3d 4172 d53c
00000050: 6c8d 11be 05d9 05bf 8af8 0abf 894e 8dbe
00000060: 1343 96be 222b 383e db18 2cbe 424d 67be
00000070: 17eb 0c3f ecf1 4d3e 4eb8 d23e f91c 8fbe
00000080: 8b7c 71be 3447 593e d2ee c4be 513f c1be
00000090: b061 e4bc 2040 58be 4b99 ddbe 8256 af3e
000000a0: 94d2 ed3e 0ad2 bf3d ece7 cdbd 43e5 08bf
000000b0: c14e 57be 8e84 163e dd64 8b3e c96b 95bd
000000c0: 17be 69be b4b6 a43e db61 ebbe ced4 ba3e
000000d0: 5d5e 65be 6ac6 113c e2b6 e9bd 9560 8f3d
000000e0: 87b6 32be a9eb d63e bdef 75bc 03c1 e63e
000000f0: 1c1a 0e3f 2b03 90be a6a4 d7be d321 ed3e
00000100: 3299 e73e c3bd e1be 5ac3 36bd 2dc1 11bf
00000110: 43fa f1be 8632 e43d 813a 1d3e 06a1 fa3d
00000120: d0dd 20be d15d 083f cd03 a93d 556a aebe
00000130: 70dd 05bd 86ee 0d3e 0802 4f3e 2404 d1be
00000140: df9c 5d3e e404 97be c79f f5be 4d77 a1be
00000150: 1c8d 0e3f 63b3 fc3e 8557 043f 2087 ad3e
00000160: f650 df3e 8b39 9ebd dda3 a2be c9b7 933e
00000170: 1e2c 99be 047f c7be c6c7 3cbe b81f f83d
00000180: 7a2c 983e 6fa5 65be 21fa adbe 7058 9f3d
00000190: ad3b aebe e774 c0be 2218 9a3e 0b74 c6bd
000001a0: 740e 073f e6c7 0f3f 4dda 303e cb80 4b3e
000001b0: ba1c 083e 3e5e 143c 61fd 2bbd 64d1 013c
000001c0: cec7 5c3e cd6d 093f 5743 19be b1ee 79be
000001d0: 7722 0fbe ccd2 8ebe 75fa c83d cfa2 dc3e
000001e0: 6c23 e73e 18b8 873e b286 d9be 9aa2 9ebe
000001f0: 4be5 01be 24fd d9bd a46a 423d 70ad 07bf
0.008137666 0.5253157 -0.49192685 -0.22047724 0.3366841 -0.12576698 -0.11818547 -0.24063393
0.39795825 0.2831815 0.18504262 -0.32454658 -0.46871427 0.062458314 0.1710105 -0.26656276
-0.16156119 0.38991717 0.045867726 0.026055457 -0.14214104 -0.5228427 -0.5428549 -0.2759898
-0.2934805 0.17985204 -0.16806357 -0.22588065 0.5504622 0.20111817 0.41156238 -0.27951792
-0.23582666 0.21218568 -0.38463455 -0.3774362 -0.027878612 -0.21118212 -0.43281016 0.34245688
0.4644972 0.09366234 -0.10054001 -0.53474826 -0.21026136 0.14699003 0.2722539 -0.07295949
-0.2282642 0.3217064 -0.45973095 0.36490482 -0.22399278 0.008897403 -0.11411835 0.070008434
-0.17452441 0.4197667 -0.015010771 0.4506913 0.5550859 -0.28127417 -0.42117804 0.46314868
0.45234066 -0.4409009 -0.044619896 -0.5693539 -0.47261247 0.11142449 0.15354349 0.12237744
-0.15709615 0.5326815 0.08252678 -0.340655 -0.032681882 0.1386052 0.20215619 -0.40823472
0.21641873 -0.2949592 -0.47973463 -0.31536332 0.55684066 0.4935561 0.51696044 0.33892155
0.43616456 -0.07725819 -0.31765643 0.28851154 -0.2991647 -0.38964093 -0.18435583 0.12115425
0.29721433 -0.22426389 -0.33979896 0.0778054 -0.34029904 -0.3758919 0.30096537 -0.09690102
0.5275643 0.56164396 0.17270775 0.1987335 0.13292208 0.009055672 -0.041989688 0.007923458
0.21560594 0.5368317 -0.14967094 -0.2440746 -0.13977991 -0.278952 0.09813396 0.43092963
0.45144212 0.2650764 -0.42485577 -0.3098343 -0.12685125 -0.10643986 0.04746498 -0.5299902

bn_first.weight f4 [128]
00000000: 1e8c 183f 1aeb 193f b080 113f 96ed 703f
00000010: b5b7 2a3f a78a 8f3f 71d3 353e b8ae e23e
00000020: b963 543f 5781 2c3f 5229 713f 38ce 4e3f
00000030: c3ef 0f3f 45ac 103f 566c 8a3f 3c2b 5a3f
00000040: bfbf 4f3f 0605 e73e 4c9e 0f3f 9dd4 623f
00000050: 1773 1f3f d7fe bf3e 290f fb3e 2274 463f
00000060: 0f61 d03e 53ce 213f ba61 403f 506d 2f3f
00000070: b706 073f 738a 443f deef 213f 0f12 1b3f
00000080: d33c 393e 8203 4f3f fc56 643f 3776 7a3f
00000090: bd7c 423f 7af1 733f 0b0c 523f 3594 883e
000000a0: ca86 6f3f 9e00 233f 733c 483f 8998 223f
000000b0: a39e 633f 3620 453f 8562 263f b0c6 153f
000000c0: a54a 0c3f fb2d 333f 3257 473f d6b2 0e3f
000000d0: a7c9 043f 8963 783f 199f 653f debd e03e
000000e0: 0986 563f 4030 853f e6b9 323f 78fd 723f
000000f0: e9be 073f 040e 343f 2fe5 813e 8d96 313f
00000100: cbe1 363f 025f 5e3f 2c65 593f 7766 233f
00000110: a385 283f 8c59 6b3f f640 443f 2c7b 243f
00000120: 4b8c 383f 869e 413f 5030 473f 05e9 333f
00000130: 82cf 353f e24b 313f 44a6 223f 59bd c43e
00000140: 1903 f03e 61bf 453f 9fd3 473f 25b9 1b3f
00000150: dc44 613f 8a8f c73e 0681 313f 52c2 453f
00000160: 29bb 323f 677d 533f b40f 763f 6203 333f
00000170: e81f 3e3f 956a 0c3f 91f4 3c3f e741 f03e
00000180: 28f0 903e 803e 323f 3f8c 323f fb57 7b3f
00000190: 7d5d 6f3f c7c2 c53e e699 033f 2d11 1f3f
000001a0: 5575 223f c7ba 363f 99ed 4d3f ac7f 5b3f
000001b0: f5e6 443f 8941 5d3f c547 b93e f083 383f
000001c0: 41c9 423f 9f16 223f 5a85 233f 527e cb3e
000001d0: afb2 4e3f 54fa d83e 6c88 5d3f 30c2 553f
000001e0: fca3 1d3f 81cf d03e 609d 473f 0921 353f
000001f0: 0c12 1d3f 40ca cf3e f562 5f3f 47c4 db3e
0.595888 0.6012436 0.56836987 0.9411253 0.66686565 1.1214188 0.1775644 0.44273925
0.82964665 0.67384857 0.94203675 0.80783415 0.5622522 0.5651286 1.0814312 0.8522222
0.81151956 0.4512102 0.56100917 0.8860567 0.6228499 0.37499115 0.49035004 0.77520955
0.4069905 0.6320545 0.7514912 0.6852617 0.5274462 0.76773757 0.63256633 0.6057443
0.18089609 0.8086473 0.8919523 0.9783663 0.75971586 0.9529034 0.82049626 0.26675573
0.93565047 0.63672817 0.7821724 0.63514 0.88913935 0.77002275 0.6499408 0.585063
0.548014 0.69992036 0.77867424 0.5574163 0.518702 0.9702688 0.8969589 0.43894857
0.8379827 1.040535 0.6981491 0.9491801 0.5302568 0.70333886 0.25370166 0.6937035
0.7143828 0.8686372 0.8492 0.63828224 0.65828913 0.9193351 0.7666162 0.64250445
0.7208907 0.7563251 0.77808094 0.70277435 0.71019757 0.69256413 0.6353495 0.3842571
0.46877363 0.77245146 0.78057283 0.60829383 0.87995696 0.389767 0.693375 0.77249634
0.69816834 0.82613224 0.9611771 0.69927037 0.74267435 0.5485013 0.7381068 0.4692528
0.28308225 0.6962662 0.6974525 0.9818112 0.93502027 0.38625166 0.51406705 0.62135583
0.63460284 0.7137875 0.8044067 0.85741687 0.7691491 0.86428124 0.36187568 0.7207632
0.7608834 0.6331577 0.63875353 0.39744812 0.807414 0.42378485 0.8653629 0.8349943
0.61578345 0.40783313 0.7797451 0.7075353 0.6135566 0.40583992 0.8726037 0.42923185

bn_first.bias f4 [128]
00000000: f04c 843e b83b 43bd a8c2 37bf 232b 01bf
00000010: 4e70 a43e 6011 ecbe 0491 a43b 32c5 1bbd
00000020: fe7a 94bf 5896 31bf e015 d2be 2906 4fbf
00000030: fedc a23e 1e17 ecbd d577 5abe b049 9cbf
00000040: 470b 99bf 3ffc 083e 55df 853e 6272 d1be
00000050: 7d55 213e 0537 d8be f920 55be fa35 83bf
00000060: 2013 59bd 5db5 f0be fffd 49bf e359 7cbf
00000070: fb5f 1f3e 221b 90bf 6565 af3d 0065 013e
00000080: ee14 6cbe 4bcd 90bf 76d9 7fbe 3b8c 57be
00000090: 4e00 193d 4456 1ebf 74ea b2be 6f0a d1be
000000a0: bd1e 11be 45b8 10bf 52a6 8fbf 31e1 38be
000000b0: 30e4 c43d 25c8 36bc 1a33 d0be 5c46 e63e
000000c0: 601a bf3d e452 75bf a42f 7bbf 490b 433e
000000d0: c9a5 3a3e 72e4 5bbf 7fce 3fbd 6655 aebe
000000e0: 9d0c 9fbf 2352 4ebf ec00 82bf 4ed9 2fbe
000000f0: 067e 833e 0b66 80bf 0c20 ffbd 2d64 3abf
00000100: ddf0 26bf 9b4f aabf 8297 95bf 9fc5 dbbe
00000110: d679 c6be d8d3 a8bf 2527 8cbf 7514 d1be
00000120: b1f1 c2be d7f2 88bf 13c4 17bf 5e2e 983e
00000130: 0738 eebe c1d9 923e a1f7 d43e 9a0e 6dbd
00000140: e8b7 8c3e f453 9abf bd79 5abf 608a 08bf
00000150: db57 2cbf a3c0 25bd cea6 223e 81da aebe
00000160: 1ff7 043e bc1b 99bf e88f 19bf 150b e6be
00000170: 44b6 dbbe e68b c2be ce74 c5bd 865f dc3d
00000180: 1c91 183e 963e 3cbf 13e1 b7be 73ce 5fbe
00000190: 5f38 95bf edf8 fabe aa4a babe ee71 9cbd
000001a0: f406 54bf 47c7 153e 6cf9 7fbf 965d fcbe
000001b0: f9bb 0ebf cce5 debe db14 f3be 08f0 1cbf
000001c0: 0e3e 2bbf 3cd3 6dbf 88a1 06bf 96d8 0f3e
000001d0: 9a0c 84bf 94fc 2d3e 7714 a3bf ba7d ebbd
000001e0: 7f4d e8bd 8743 933e a74f be3d 9c3e 903e
000001f0: ebe6 09be b349 96be 5771 a2be 8ad0 a0be
0.2583995 -0.047664374 -0.71781397 -0.50456446 0.32116932 -0.46107006 0.00502217 -0.038029857
-1.1600034 -0.6937003 -0.41032314 -0.80868775 0.3180923 -0.11527847 -0.21334775 -1.2209988
-1.1956567 0.13377474 0.2614695 -0.4090758 0.15755267 -0.42229477 -0.2081336 -1.0250847
-0.052996755 -0.4701337 -0.7890319 -0.98574656 0.15563957 -1.125828 0.08564261 0.12636185
-0.23054859 -1.131265 -0.24985299 -0.21049587 0.037353806 -0.6185038 -0.349445 -0.40828273
-0.14171882 -0.56531173 -1.1222632 -0.18054654 0.09613836 -0.011156117 -0.40663987 0.44975555
0.093312025 -0.95829606 -0.9811957 0.19047274 0.18227305 -0.85895455 -0.04682779 -0.3404953
-1.2425724 -0.8059408 -1.0156531 -0.17172739 0.25682086 -1.0031141 -0.12457284 -0.72809106
-0.6521128 -1.3305544 -1.1686862 -0.4292421 -0.38764828 -1.318965 -1.0949446 -0.4083592
-0.3807502 -1.0699109 -0.5928356 0.29722875 -0.4652712 0.28681758 0.41595176 -0.057875253
0.2748406 -1.205687 -0.8534201 -0.53336143 -0.67321557 -0.040466916 0.15883943 -0.3415108
0.12984894 -1.1961589 -0.5998521 -0.4493033 -0.42912495 -0.3799736 -0.09641419 0.10760407
0.14899105 -0.73533 -0.35913906 -0.21856098 -1.1657828 -0.4901804 -0.3638509 -0.07638918
-0.8282311 0.146268 -0.9998996 -0.4929015 -0.55755574 -0.43534696 -0.4747685 -0.6130376
-0.6689156 -0.92900443 -0.5259023 0.14047465 -1.0316346 0.16990882 -1.274062 -0.1149859
-0.11342906 0.28762457 0.09292536 0.28172767 -0.13466994 -0.29353103 -0.31727096 -0.31409103

bn_first.running_mean f4 [128]
00000000: 5a0d 1b42 95a8 0f42 ae84 0942 8b68 3dc1
00000010: aa74 3142 0dcc a041 aa44 04c2 be88 89c1
00000020: e037 2cc2 ae25 57c2 6d2e 6e42 6260 0142
00000030: a3d2 e741 51f7 2bc1 b83d 2f42 bdc5 1bc2
00000040: 95d8 79c2 b2e7 e941 e38b e341 3574 c1c0
00000050: 56a8 3141 4149 51c1 e8ee 1dc0 ab88 0bc2
00000060: 5cdb 8ebf 0b30 ca40 716f b2c0 3776 18c2
00000070: 82f0 1e42 760c 5dc2 04d2 0742 dabd e5c0
00000080: da24 0a42 6ab6 26c2 085d 0dc1 3ff8 26c2
00000090: 884d f53f ce29 adc1 31a4 f4c1 6167 49c2
000000a0: 50c4 bdc0 1d09 3cc2 16a3 9d42 4080 c041
000000b0: 5da9 10c2 0dda 4dc2 c229 f341 1551 d7c1
000000c0: 0302 0c42 7438 7f42 4aaf e941 a440 20c2
000000d0: 1845 0f42 7683 4ec1 676f 7a41 e142 1342
000000e0: 014a 47c2 7b23 27c1 a489 45c2 49cd 9ec1
000000f0: 4899 a841 2569 3042 61b5 2dc1 76b5 f8c1
00000100: 1399 ec41 3f8c 2fc2 7117 25c2 c805 5d41
00000110: 739b 1fc2 2036 4ac2 c119 70c2 a903 ef40
00000120: c9d6 ea41 8b3f 8642 e65b 4dc2 d334 2a42
00000130: a6bd 54c2 3013 6042 ebfc b941 b202 5fc2
00000140: 903a c241 acb9 81c2 ab34 aec1 892a 8d41
00000150: 2a67 ccc1 52d1 3ec2 de2d 3642 6e82 7bc1
00000160: cac5 9b41 9450 5bc2 ce4c 1842 3edf 6541
00000170: cc8b b7c1 9a5b 5dc2 8e77 35c2 9022 3942
00000180: 6959 8242 c2e9 4ec2 ec45 32c2 2d01 a8c1
00000190: a21e b3c1 e324 1b41 2ef8 a8c1 f088 af41
000001a0: 8517 2e42 93c1 4442 c4d2 bcc1 ac7a c041
000001b0: 2a68 4fc2 4247 2fc2 9618 cec1 155d 4ac2
000001c0: d912 cdc1 85ab 06c2 03f6 3fc2 5344 d4c1
000001d0: 53ef dac1 1f8f 3342 d466 8bc2 ec47 3542
000001e0: 8f45 20c2 a4a1 9541 020b 52c2 2f6b d341
000001f0: a8a1 3bc2 0e2c 6bc1 4d94 5442 12f9 38c1
38.76304 35.91463 34.37957 -11.838023 44.36393 20.099634 -33.067055 -17.191769
-43.054565 -53.786797 59.545338 32.344124 28.97785 -10.74788 43.810272 -38.943104
-62.461506 29.238132 28.443304 -6.0454354 11.103598 -13.080384 -2.4677067 -34.883465
-1.1160693 6.3183646 -5.5761037 -38.115444 39.73487 -55.26217 33.955093 -7.1794252
34.535988 -41.67814 -8.835213 -41.742428 1.9164286 -21.645412 -30.580172 -50.350956
-5.930214 -47.0089 78.81853 24.062622 -36.165394 -51.46294 30.39539 -26.91459
35.001965 63.80513 29.21059 -40.063126 35.817474 -12.907095 15.652198 36.81531
-49.82227 -10.446162 -49.384415 -19.850237 21.074844 44.10268 -10.856782 -31.088604
29.574743 -43.88696 -41.272892 13.813911 -39.901806 -50.552856 -60.02515 7.469197
29.354876 67.12411 -51.339745 42.551586 -53.185204 56.018738 23.248495 -55.752632
24.278595 -64.86264 -21.775717 17.64577 -25.550373 -47.704414 45.544792 -15.719343
19.471577 -54.82869 38.075005 14.3670025 -22.94326 -55.339455 -45.366753 46.283752
65.17463 -51.72828 -44.568283 -21.000574 -22.389957 9.696506 -21.121181 21.941864
43.52297 49.189037 -23.602913 24.059898 -51.851723 -43.819588 -25.762005 -50.5909
-25.634203 -33.6675 -47.990246 -26.533361 -27.366858 44.889767 -69.700836 45.320236
-40.06793 18.703926 -52.51075 26.427336 -46.907867 -14.698256 53.144825 -11.560808

bn_first.running_var f4 [128]
00000000: 36a3 8743 5a47 5643 25da cc43 1a6e 0e43
00000010: 160d 5343 e49a bd42 f1ed 0843 244a dd42
00000020: 9e0c d743 3dee e243 1587 c643 97a8 0f43
00000030: 4fc8 9b42 53e8 6742 3ce1 3c43 2a7f cd43
00000040: 26de 4c44 10d2 af43 5a9b 8b42 376f 6042
00000050: a03c 4042 9fa6 7f42 2edd 8843 e458 b043
00000060: 0135 ea43 e0cc 5243 a4c8 de42 1de9 c943
00000070: af33 4b43 0ba6 3044 1dec 0e43 17e6 1e43
00000080: 8f2a b643 c108 f043 6e70 d741 2047 5843
00000090: dace d743 6cfa 5343 3a2c 9743 d869 0944
000000a0: 93c5 9e41 7ba1 9143 0dd1 b344 b463 8b42
000000b0: 42b0 e443 6ccc 9243 29ff c342 a5dd 5143
000000c0: 7f42 1e43 e3e8 5f44 a621 4c43 e5d5 8b43
000000d0: 69be fa42 23bd 0243 8709 8e42 99c9 6243
000000e0: 3b26 0244 c20f 9142 e94c 0544 ab4f 8c43
000000f0: c469 1642 581d e543 b049 b542 0977 6b43
00000100: 229e fd42 96b1 c943 77e6 e843 125c 8742
00000110: 8812 7f43 0843 1744 6b08 3b44 4841 9c43
00000120: 278e b042 dcde 7a44 d1f1 9343 4351 2843
00000130: e5ce 7143 6002 9343 1b31 8f42 4bbf 7a43
00000140: 6c88 5643 c386 5344 a611 5643 e0dc 9543
00000150: 66e2 9842 056f b143 8cc2 3543 c43b 1a43
00000160: bfd2 3242 9be7 2544 44be 5d43 a01d 0a43
00000170: 16ab a843 3586 c243 7ff3 cc43 d6f8 b843
00000180: b1cf 6b44 1d73 ad43 b9af b443 a67f 0742
00000190: f2bf 2243 36ff 7843 fe69 f742 50ed 2d42
000001a0: f0fb 1844 a797 6343 aeb8 6443 e7e4 3a42
000001b0: 29dc 9843 0953 ad43 b3c3 a243 fb77 d743
000001c0: 070a 3f43 db3a 8843 bfe4 4143 1165 1743
000001d0: 81db 8443 9978 4243 3f2d 8c44 94fa 4643
000001e0: cc03 1e43 9c9d 0942 7eb2 0b44 c8c9 8442
000001f0: 3cf8 6743 df1e 3243 991e b843 0fc5 a943
271.2751 214.27872 409.70425 142.43008 211.05112 94.80252 136.92946 110.644806
430.09857 453.86124 397.05533 143.65855 77.89123 57.97688 188.87982 410.99347
819.47107 351.6411 69.80342 56.10861 48.059204 63.912716 273.72797 352.69446
468.4141 210.8003 111.39188 403.8212 203.20189 706.5944 142.92232 158.89879
364.3325 480.0684 26.929897 216.27783 431.61603 211.97821 302.34552 549.6538
19.846472 291.26157 1438.5328 69.69473 457.377 293.59705 97.99836 209.8658
158.25975 895.63885 204.13144 279.67105 125.371895 130.73882 71.01861 226.78749
520.59735 72.53078 533.2017 280.6224 37.603287 458.22925 90.64392 235.46498
126.80885 403.3874 465.8005 67.679825 255.07239 605.04736 748.13153 312.51
88.27764 1003.4822 295.8892 168.31743 241.80818 294.01855 71.59591 250.74724
214.5329 846.10565 214.06894 299.7256 76.442184 354.86734 181.75995 154.23346
44.705807 663.61884 221.74323 138.11572 337.3366 389.0485 409.9023 369.94403
943.2452 346.89932 361.37283 33.874657 162.74979 248.99692 123.707016 43.48175
611.9365 227.59239 228.7214 46.723537 305.72 346.6487 325.5289 430.93735
191.03917 272.4598 193.89354 151.39479 265.71487 194.47108 1121.414 198.97882
158.01483 34.403915 558.78894 66.394104 231.96967 178.12059 368.23904 339.53952

layer_second.weight f4 [64, 128]
00000000: ff8f aa3d 57e6 b43d 7e6c ab3d c60e f6bd
00000010: 4936 043e 7a98 3a3d 9413 37be 76ef b0bd
00000020: c81f cebd 8e0a ac3e bd00 d6bd 8bf1 0d3e
00000030: f35f e43d e568 2b3e d940 68be f49f 51be
00000040: 5241 a5bf 1d9c 2dbe 2bad 1f3d e6d0 78bc
00000050: 0d12 78bd 7c17 4a3e edf4 d93d aeb5 8abe
00000060: 2a5a 7abd 1980 d23d 8025 2fbe bb39 23bb
00000070: 2b25 323c f11b 7dbe cc54 32be dda7 d0bc
00000080: d318 fb3d 7713 d53d 31a1 973c 49c5 9cbd
00000090: 1a60 cc3d e7a4 6cbe 9d42 dfbd f5a0 5d3d
000000a0: 2864 683d 5d89 4a3d 412b a33e dc46 57be
000000b0: 6b0d d23d 2dc0 0dbe ab5a 913d 2fd3 313d
000000c0: 68c6 42be 789c 023e b365 ef3d f40b 4cbe
000000d0: 8a30 fcbc 03fc 9fbd f168 21bc 4ab2 d0bd
000000e0: 4140 bcbf 042d 52be 0e6f adbe fcb4 43bc
000000f0: a141 9d3c 5b32 933e ebc2 ab3d 6beb 2bbe
00000100: 39e7 453e 5668 59bd 369e 4dbf 5f67 a6bd
00000110: 15bd 11be 376e 67be e1d7 8fbf b264 693d
00000120: d41d cdbd 3bb3 be3e f383 eb3e 93c7 903c
00000130: 9f51 aa3b 7744 c43c f044 d83d fe4b 13be
00000140: 21b7 8cbd 0618 d7bf 3aaa 24bd 8c97 933d
00000150: 9c95 e2bd 3fe1 873d a77b d13c 6cdd 253e
00000160: e0c5 d83d 9e24 86bf f57a 3ebe 6601 e83d
00000170: c125 d9bd 2f38 54bd d96e babd 2aa9 8cbe
00000180: f590 a23d 88de 993e 8b85 7ebd 9eb3 30be
00000190: a83a fabe 5ce8 173e dedf bdbd 050f 093c
000001a0: 6f15 943e 1f57 42be 03df 00bf dfb4 333d
000001b0: 27a9 403e a188 edbd ed7d 66be c27f 5b3c
000001c0: aaa4 3bbe b315 42bf 9fd8 823e 0bc9 1cbe
000001d0: 0d9f 83be 425d f23c b9af 94be 8868 92be
000001e0: 58cf febd a71a da3c 86b8 1dbb bdfd 22be
000001f0: 3558 31be 6252 dbbd 17aa c13d dca0 06be
00000200: 5e93 3cbe 8dd7 313d 10cc 213d 675d 1f3e
00000210: 669e 82be c576 b5be 0c24 2b3d 0882 fd3c
00000220: c6c3 2f3e e185 ec3b 84ad b93e 3276 433e
00000230: 643c 89be 49f4 d4bd 485c 933e af8e 49bc
00000240: 6f62 883e 00c5 38bd eb3d 9dbe 2525 413e
00000250: 5374 613d daac fbbc 5bd5 eabe 114e c4bd
00000260: c94b c3be 6c9f f6b9 1589 c2bb 1d4d bc3d
00000270: e973 0f3d d487 1dbc 081a 953d d606 b9be
00000280: 7017 a4be 6345 533e 0690 6f3d 3f28 b63e
00000290: ac56 99bd ab95 afbc 5a3f 973d 6e0b 613d
000002a0: 9cdc a6be 2c30 8d3d 33bd 6dbe c363 dcbd
000002b0: f456 643e 6b89 9f3d be16 183e 9166 dcbd
000002c0: 0c60 fcbd 4c57 69bf 39fb 26bf af46 6e3d
000002d0: fa48 46be 94d3 c53d 29ef 403d d031 7e3d
000002e0: 087f a83e 1860 7e3e cbbb bfbd 459e 0bbd
000002f0: 83a2 2abe 2059 22be ce8d aebe 5959 56be
00000300: 9037 00be 07d1 82be 7292 933e a4da f5bd
00000310: dd86 3cbe 3bb7 113e 3a14 7d3e 1e8c 8b3c
00000320: 11a6 453e 1ae0 84be 7a11 a63d 4a9b 6bbe
00000330: cac7 dc3b b61c 9fbe 520a 54be 0b9b 3a3d
00000340: 5b0d 7bbe b76e c83e 5004 933d 27ef 51be
00000350: 638f 0abc 2bcc 733b 655b 26be 29da 1dbe
00000360: 42bf 42bc 432a 6c3e 4ee9 0e3e dbbd cabe
00000370: f033 62bc b720 b43d 0894 f33b a1a2 293e
00000380: 2e38 3dbe 76c2 0abe 5429 04be 1ec1 443e
00000390: ac6b 8d3d a5ea 873c 4949 af3d 6d8b c0bd
000003a0: e372 5abd cfe7 35be 2b1a 0c3e 2c28 88be
000003b0: c38e dbbd 2db3 9e3e a01e 8f38 a1f4 38bd
000003c0: fd72 8d3d 0cf5 4e3e 8bf8 123d 27e8 eabd
000003d0: 2f19 703b 41f1 39be 2688 afbd 6633 793e
000003e0: 47c0 edbd f6a0 82be 43a2 0bbe c6cc 8abe
000003f0: 3b4b b1bd 2b99 9f3d 5864 523e c57e 95bd
0.08328246 0.08832996 0.083703026 -0.120145366 0.12911333 0.04555557 -0.17878562 -0.086394235
-0.100646555 0.33601803 -0.104493596 0.13861673 0.11151113 0.16739233 -0.22680987 -0.20471174
-1.2910559 -0.16954084 0.038983505 -0.015186524 -0.06056409 0.19735521 0.10642419 -0.27091736
-0.061121143 0.10278339 -0.17104149 -0.0024906236 0.010873119 -0.2471769 -0.1741516 -0.025470668
0.12260594 0.10404103 0.01850948 -0.07654817 0.099792674 -0.2310978 -0.10901377 0.05410858
0.05673614 0.049447406 0.31868938 -0.21023124 0.102564655 -0.1384284 0.07097372 0.04341429
-0.19020998 0.12755 0.116893195 -0.19926435 -0.030784864 -0.07811739 -0.00985168 -0.10190256
-1.4707109 -0.20524985 -0.3387379 -0.0119450055 0.019196333 0.28749356 0.08386787 -0.16789024
0.19326486 -0.053078018 -0.80319536 -0.08125185 -0.14232285 -0.22600637 -1.1237756 0.056980796
-0.10015455 0.37246117 0.45999107 0.01767329 0.0051977183 0.023958428 0.10560024 -0.14384457
-0.068708666 -1.6804206 -0.040201403 0.0720664 -0.11063692 0.06634759 0.025571657 0.16197747
0.10584617 -1.0479925 -0.18601592 0.11328392 -0.10602904 -0.051811393 -0.09103174 -0.27472812
0.079378046 0.3005259 -0.062139075 -0.17256019 -0.48872876 0.14834732 -0.09271215 0.008365397
0.28922603 -0.18978547 -0.5034029 0.043873664 0.18814526 -0.115983255 -0.22508974 0.013397159
-0.18324533 -0.7581436 0.25555894 -0.15311067 -0.25707284 0.029585484 -0.29040316 -0.28595376
-0.124418914 0.026624037 -0.0024066283 -0.15917106 -0.17318805 -0.10709073 0.0945627 -0.131473
-0.18415591 0.043418456 0.03950125 0.15562974 -0.25511473 -0.35442176 0.041782424 0.030945793
0.17164525 0.007218108 0.36265194 0.19088057 -0.26803887 -0.10398156 0.28781343 -0.012302085
0.266376 -0.04510975 -0.30711302 0.18861826 0.055042576 -0.03072207 -0.45865902 -0.095852025
-0.38143757 -0.00047039555 -0.0059367516 0.09194396 0.03502265 -0.0096149035 0.07280356 -0.36138028
-0.3204913 0.20631938 0.05848696 0.3557758 -0.074872345 -0.021433672 0.0738513 0.05494254
-0.32590187 0.06893954 -0.23216705 -0.107612155 0.22298795 0.07789882 0.14852425 -0.107617505
-0.12323007 -0.9114883 -0.65227085 0.058172878 -0.19363776 0.09659496 0.04710308 0.062059224
0.32909417 0.24841344 -0.093619905 -0.034086484 -0.16663556 -0.15854311 -0.34092563 -0.20932521
-0.12521195 -0.255501 0.28822666 -0.12004593 -0.18410821 0.14230053 0.24714747 0.017034587
0.1930163 -0.25952226 0.08108802 -0.23008457 0.006737684 -0.31076592 -0.20707062 0.045558017
-0.24516813 0.3914697 0.07178557 -0.20501386 -0.008457038 0.003720055 -0.16245802 -0.15415253
-0.01188642 0.23062997 0.13956186 -0.39597973 -0.013806328 0.08795302 0.007433418 0.16565944
-0.18478462 -0.13550743 -0.1290639 0.19214293 0.069053024 0.01659138 0.085589 -0.09401593
-0.05333222 -0.17764209 0.13681857 -0.2659315 -0.10720589 0.30996075 6.824476e-05 -0.04515517
0.06906698 0.20210665 0.03588156 -0.11470061 0.0036636104 -0.18158437 -0.0857089 0.24336013
-0.116089396 -0.25513428 -0.13636117 -0.27109355 -0.08656927 0.07792886 0.2054609 -0.0729957

layer_second.bias f4 [64]
00000000: de02 afbd 7784 f0bc 0d8a 40bd b0c7 463d
00000010: 7970 8c3b 6d49 81bd e76f 923d af9a 24bd
00000020: aeb3 20bc 30de fa3c 368b 71bd ffae 0bbc
00000030: a0cd f3bc b04b adbc f37c 02bd 734d 673d
00000040: 1c1b 32bd cd63 75bd 1fda 1b3d 8ed4 ed3c
00000050: 0663 2e3b 4b0d 053c e02f b23d e187 f6bc
00000060: 3739 a3bd 9731 b1bd eb31 bd3c 7834 0e3d
00000070: b7ea af3a 4280 96bd d084 8abd b994 77bd
00000080: b2ad 683d 4d64 873c cbac 49bd d94c abbd
00000090: 163e 513d 1722 813a b780 b53d c9fa 93bd
000000a0: 0fb3 90bd 4fd4 7b3c ef2f 743d d9a3 6e3d
000000b0: 0391 b63d 3bcf 6c3d a572 213d 9361 5fbd
000000c0: 2573 b23d f601 20bd cc96 693d b3b1 163d
000000d0: d985 58bd 46c8 e9bb 441a ffbb 21fb 873d
000000e0: 1214 8b3d 3038 a03c d1e7 4dbd 8629 c93c
000000f0: e516 943d 4be6 3ebd 7f1c 913d 6b6f a33c
-0.08545469 -0.02936004 -0.047006655 0.04853028 0.0042858687 -0.06312833 0.0715025 -0.04018658
-0.009808464 0.030623525 -0.058970653 -0.008525609 -0.029761136 -0.021154255 -0.031857442 0.056470346
-0.043482885 -0.05990963 0.038049813 0.029032018 0.0026609316 0.008120845 0.08700538 -0.030094089
-0.07969897 -0.08652037 0.023095092 0.034718007 0.0013421391 -0.07348682 -0.06763613 -0.060444567
0.056806274 0.01652732 -0.049237054 -0.08364267 0.0510846 0.0009852079 0.08862441 -0.07225568
-0.07065403 0.0153704425 0.059616026 0.058261726 0.089143775 0.057814818 0.039415974 -0.054536413
0.08713368 -0.03906437 0.057028577 0.03679056 -0.052862022 -0.00713447 -0.0077851135 0.06639696
0.067909375 0.019558042 -0.050269905 0.024555933 0.07230929 -0.046606343 0.07085513 0.01995059

bn_second.weight f4 [64]
00000000: 9d01 863f 7946 663f 5081 7f3f 8fb8 773f
00000010: 798f 5a3f f8a3 703f bb01 923f 090c 573f
00000020: 47a6 933f 2a2b 813f 6692 653f a7ea 6b3f
00000030: 5c5f 653f 66a9 763f b331 4e3f b45e 723f
00000040: e59d 8b3f 9ccf 5c3f b13e 833f c183 763f
00000050: 68ed 903f 6898 823f 8ef5 573f d599 733f
00000060: 21c0 803f ab16 7b3f 3849 783f af83 593f
00000070: 6a97 853f 57ca 593f 4088 913f 1f2c 603f
00000080: e70c fd3e aa4c 823f 5390 753f e8c6 903f
00000090: eee5 823f 1f44 463f d981 893f fdc5 923f
000000a0: bf6f 743f 970e 733f 8aa4 6f3f 0dd8 433f
000000b0: 9b04 6b3f b8e7 7c3f caef 2f3f 54f6 573f
000000c0: d528 833f 1892 6a3f 8707 833f 61d0 883f
000000d0: 88a1 8a3f 2811 9e3f 482d 5d3f 660f 2d3f
000000e0: c4f4 843f 28d6 8e3f dffb 723f 92c4 7d3f
000000f0: 4cdc 753f 258e 853f 55d2 583f 277d 7e3f
1.0469242 0.8995128 0.9980669 0.9676599 0.8537517 0.94000196 1.1406778 0.8400274
1.1535119 1.0091298 0.8967651 0.92154926 0.8959863 0.9635223 0.80544585 0.94675756
1.090756 0.86254287 1.0253507 0.9629479 1.1322451 1.0202761 0.8435906 0.95156604
1.0058633 0.98081464 0.9698672 0.8496656 1.0436833 0.8507437 1.1369705 0.87567323
0.49423906 1.0179646 0.95923346 1.1310701 1.0226419 0.77447695 1.0742751 1.1466671
0.9548301 0.9494414 0.9361044 0.7650154 0.918039 0.98791075 0.68725264 0.8436024
1.0246836 0.9162917 1.0236672 1.0688592 1.0830545 1.2348986 0.8639722 0.6760162
1.0387197 1.1159105 0.94915575 0.9912807 0.9603927 1.0434004 0.8469594 0.9940972

bn_second.bias f4 [64]
00000000: 76cd dbbd 4680 573e e9bd 983e 38d2 243d
00000010: 1112 b83e 5013 04bf e4f5 eebe 7783 cfbe
00000020: 9434 d1be ef55 c33d a746 003d 3dd5 a73d
00000030: 508c 12bf 5c70 8f3c 79a3 99bd e923 67be
00000040: c631 c6be 43a4 b2be 301b 813d 83ac 1f3e
00000050: 90c1 d0be d753 d43e 1f28 59bd bb3d 973c
00000060: f289 b03e 1579 02bf f2f4 9f3e 1ef2 42be
00000070: 46b3 053e f745 bb3e da2c c1bc f987 8f3d
00000080: e352 02bf 5b54 a33e 47c7 5d3e 82e8 d5be
00000090: 25b4 0bbf 29ec 9cbe b77b b8be 155d c8bd
000000a0: 5b9f 1dbf ac9e 07bf 7b8f 1b3c 4900 fbbe
000000b0: c413 de3d 3d31 d23d 8faa 8dbe 160f 7a3e
000000c0: 29e2 05bf 621e 01bc 08ed b63d 44a0 e0be
000000d0: dce8 71be 0063 b2be 9c7a 7a3d 3e4f 05bf
000000e0: 9a80 a03e ca2c bebd e28f 063c 2f21 ddbe
000000f0: b22e dabe bda2 203e c1ef 3fbd 693b e03e
-0.10732548 0.21045026 0.2983239 0.040239543 0.35951284 -0.5159197 -0.46671975 -0.40529987
-0.40860426 0.09537875 0.03131738 0.08194969 -0.5724535 0.017509632 -0.07501883 -0.22572292
-0.3870985 -0.34890947 0.06304014 0.15593152 -0.40772676 0.41470215 -0.053016778 0.018462053
0.34480244 -0.50966007 0.31241566 -0.19037673 0.13056669 0.36576816 -0.023580957 0.070083566
-0.50907725 0.31900296 0.2165805 -0.41778952 -0.54571754 -0.30648926 -0.36031887 -0.09783379
-0.6157128 -0.5297649 0.009494658 -0.49023655 0.10843614 0.10263298 -0.27669188 0.24419817
-0.5229822 -0.007880779 0.08931929 -0.43872273 -0.23623985 -0.34841156 0.061152086 -0.5207404
0.31348115 -0.092858866 0.008213015 -0.4318938 -0.4261375 0.1568708 -0.046859507 0.43795326

bn_second.running_mean f4 [64]
00000000: de67 3ebf 182d b1bf f060 16bf 2ae7 33bd
00000010: a11a f2be 7bb8 e73c fe92 1cbf 9f0b f9bf
00000020: 434a bfbe f857 8a3e 064d e93d fd97 19bf
00000030: 7236 e73f 8ab0 0f3e ba27 16c0 0f8b 62be
00000040: f09c 1dbf b949 e5bf 5c9c 3bbf ef6a 7bbf
00000050: 654a 9abe 9495 04bf 4cd1 b9bf 6479 d93d
00000060: f39e 75bf 04af a33f f7f2 66bf e03d 8abf
00000070: a008 d93d b2e9 7abf 61b1 8cbf 9e6f e3bf
00000080: b66a 85bf 96ab bc3d 5d63 05bf 7262 dbbe
00000090: a7a3 dc3f 9b0d 943f 72fb 35bf c7bb d13e
000000a0: ca79 5c3e 808a c03f 2e80 973d 1011 b7bf
000000b0: 1bb7 0bbf ab08 313d ba1a 84bf 5f58 2bbf
000000c0: ac08 3c3f 29b2 a53d 0a5a 8c3e 4b85 4ebd
000000d0: eff1 98bf 321a 2dbf 78e5 853f 25ff 6cbf
000000e0: 3d10 2cbf 2414 1b3f 112c 433d 1c92 68be
000000f0: 3ac4 44be 464b 6d3e 37a4 8dbd 3845 babe
-0.7437724 -1.3841887 -0.58741665 -0.043921627 -0.4728594 0.02828621 -0.6116179 -1.9456671
-0.37361345 0.2702024 0.11391644 -0.5999754 1.806349 0.14032188 -2.3461747 -0.22123359
-0.6156759 -1.7913123 -0.7328546 -0.9821004 -0.30134884 -0.5179074 -1.4516997 0.106188565
-0.9594566 1.2787786 -0.90214485 -1.0800133 0.10597348 -0.9801284 -1.0991632 -1.7768438
-1.042319 0.09212415 -0.5210474 -0.42848545 1.7237443 1.1566652 -0.710868 0.40963575
0.21530834 1.5042267 0.07397495 -1.4302082 -0.5457627 0.043221157 -1.0320656 -0.6693172
0.7345073 0.08090622 0.27412444 -0.050420087 -1.1948832 -0.67618096 1.0460653 -0.9257682
-0.6721228 0.6057761 0.047649447 -0.22711986 -0.1921548 0.23173246 -0.06916087 -0.36380935

bn_second.running_var f4 [64]
00000000: 46b1 d63e 328a 1040 2a32 5a40 21b3 5340
00000010: 5ce7 0640 2dd8 9c3f 6b12 2540 e85b 0840
00000020: 9d11 413f a668 5440 6c24 6240 2ad6 5d3f
00000030: 356c f53f 6037 8140 31ac eb40 e211 2441
00000040: 6b97 1b40 167d 4640 6551 ec3f bbd9 0e40
00000050: b57f 043f 0390 1d40 594e b740 8239 7840
00000060: 4635 943f 55a6 fc3f b56c 2240 8d63 603f
00000070: 3920 ac3f 40de b33f 47ea 173f c2fc 8940
00000080: e48a d63e 74e0 1440 a9d5 2640 a924 3840
00000090: 2e86 0c40 8b3c ee3f d4ea 463f 050e bc40
000000a0: 3d3f a83f 7c43 fd3f eee0 6f40 1c71 6e3f
000000b0: 6ae7 793f 71f6 5940 887a 8c40 6c98 d73f
000000c0: b58d 1f3f 4695 8b40 7118 6740 85e1 b13f
000000d0: af7c 923f 6fd5 fc3e 0910 bc3f 7d9a bc3e
000000e0: cf38 b03f 771b dc40 fae5 5640 a520 ff3e
000000f0: 4b31 f53e 2098 4840 e732 7440 bb1c d53f
0.41932124 2.2584348 3.4093118 3.3078082 2.107871 1.2253472 2.5792491 2.1306095
0.754175 3.3188872 3.533473 0.86654913 1.9173647 4.0380096 7.3647695 10.254366
2.4311168 3.1013846 1.846234 2.2320392 0.51757365 2.4619148 5.728314 3.87851
1.1578758 1.973826 2.537885 0.876519 1.3447334 1.40522 0.59341854 4.312104
0.4190284 2.3261995 2.6067908 2.8772376 2.1956897 1.8612226 0.7770207 5.8767114
1.3144299 1.978622 3.7481036 0.9314134 0.97618735 3.4056666 4.3899574 1.684339
0.623256 4.361972 3.6108668 1.3896948 1.14443 0.49381587 1.4692394 0.36836615
1.3767337 6.8783526 3.3577867 0.49829593 0.4788917 3.134285 3.8156068 1.6649393

layer_third.weight f4 [1, 64]
00000000: d4e1 3c3e 2b12 c03d 5b06 423e c447 1bbe
00000010: 7c2d 053e 3b22 2cbe 78ac 84be 5004 df3d
00000020: bab4 bbbe d16c 2ebe 05fb cabd 5894 873d
00000030: 5190 823e 3339 0cbe fe17 093d d043 0fbe
00000040: 34f8 89be 8d44 a33d d4e1 2e3e 181d eb3d
00000050: f962 aabe 2840 6d3e 9858 463d 035c ecbd
00000060: 38a6 653e c68d 8d3e d4ae 2a3e 07b9 a73d
00000070: 9e38 163e 1be3 193e f674 483e f0d5 a93d
00000080: d4da c23e e2d5 3e3e 7e25 123e 6414 a8be
00000090: 5c8c 933e 431f d43d 0207 903e e2cb 8fbe
000000a0: 0e3e 1dbe bf75 883e a331 f0bd 8e7c af3d
000000b0: 6f92 de3d 170e 34be 6286 cebd 00a7 d23d
000000c0: 4863 793e a05c c4bd 2a79 48be d8bc 88be
000000d0: 7a94 753e cadf d4be 7bc0 e1bd 2cea 813e
000000e0: dcb0 5d3e 34e6 7abe 79c8 e8bd 8227 5a3e
000000f0: 2354 55be 09a5 5cbe caf3 96bd 12c1 6f3e
0.18445522 0.09378465 0.18947737 -0.15164095 0.13005632 -0.16809933 -0.25912833 0.108894944
-0.3666132 -0.17033698 -0.099111594 0.06620091 0.2550073 -0.13693695 0.033470146 -0.13990712
-0.26947176 0.079720594 0.17078334 0.114801586 -0.33278635 0.23169005 0.048424333 -0.11540987
0.22426689 0.27647227 0.16668254 0.08189588 0.14670035 0.1502804 0.19575867 0.082927585
0.38057578 0.18636277 0.14272115 -0.32828057 0.28818023 0.10357525 0.28130347 -0.28085238
-0.15355703 0.26652333 -0.117282175 0.08568679 0.10867774 -0.175835 -0.10084225 0.10285759
0.24354279 -0.09587979 -0.1957747 -0.26706576 0.2398242 -0.41576988 -0.11023041 0.2537397
0.21649498 -0.24501878 -0.11366362 0.21304134 -0.20832877 -0.21547331 -0.07370718 0.23413494
