soo_bench/data/model_nanowires2d_cSi_0.1_absorbance.pt (torch, 44522 bytes, 13 tensors)

layer_first.weight f4 [128, 3]
000000 49 d9 0c 3f 5a 84 bc 3e f0 72 0a be 8b 61 03 3f
       0.5501905 0.36819726 -0.13520408 0.51320714
000010 e6 2f 24 be 09 74 ee 3d 85 33 8d be 70 1e b7 3e
       -0.16033897 0.11643226 -0.2757837 0.3576541
000020 7d 57 02 3f 33 6f f1 be 00 2e eb 3e 2b 3c dd 3d
       0.50914747 -0.4715515 0.45933533 0.10802492
000030 37 f9 f7 3e a3 91 79 3d 44 8b 8e 3e 85 53 9f bd
       0.48432323 0.060929906 0.27840626 -0.07779602
000040 3f f6 ed 3e 2b 81 ae 3d a6 36 8f be 3b 70 26 3e
       0.46476933 0.085207306 -0.2797138 0.1625375
000050 d0 14 88 be 1b 8f 20 be bb bb 1d be aa 21 c4 3e
       -0.2657838 -0.1567959 -0.15403645 0.38306934
000060 ad 00 ed be ec a0 8a be f9 27 27 be 92 de 94 be
       -0.46289578 -0.270759 -0.16323842 -0.29076058
000070 cf 27 0b 3e a1 fd 11 bf 78 5c 12 3f cc 3b e6 be
       0.13589405 -0.5702763 0.57172346 -0.44967496
000080 d3 42 e4 3e a6 9d 76 3c bb 96 9f be 12 73 b6 3e
       0.44582233 0.015052235 -0.31169686 0.35634667
000090 d0 52 85 3d 98 5b 03 3f a4 5c 81 3d 91 cf 64 be
       0.06509936 0.51311636 0.06316498 -0.22344805
0000a0 59 90 10 3e 9e 15 21 be 2c 2e c0 3e 8a 05 bd 3e
       0.14117564 -0.15730903 0.37535226 0.36918288
0000b0 60 de aa 3e b7 4d 98 be 0e 63 99 3e 8a b0 d3 3d
       0.33372784 -0.29746792 0.29958385 0.103364065
0000c0 26 3f 8a 3e 31 48 c7 be c3 53 12 bf e9 24 4e be
       0.27001303 -0.38922265 -0.5715906 -0.20131268
0000d0 54 4e f2 be 00 89 f2 3e 30 9d 3f 3e 28 25 77 3e
       -0.47325385 0.47370148 0.18712306 0.24135268
0000e0 ab d3 3a 3e 26 eb d9 3c 34 ee 04 3f 5c 14 d2 be
       0.18244807 0.026601385 0.5192597 -0.41031158
0000f0 07 c9 c2 3c 3d ea 06 bf f9 30 36 3e 3b 8d 4d be
       0.023777498 -0.5270117 0.17792119 -0.20073406
000100 77 7a 4e 3e a4 bb f5 bd da 00 ee 3e b1 a0 bc be
       0.20163904 -0.1199868 0.46485025 -0.36841348
000110 40 47 b0 be a3 0f ca be 03 07 f4 3e dc ca 44 3e
       -0.3442936 -0.39465055 0.476616 0.1921801
000120 60 84 07 3f b2 cf 02 bf a2 9e 12 bf 03 5f f4 be
       0.52936363 -0.5109817 -0.57273304 -0.47728738
000130 f8 8f be be 63 7a 6f 3e 01 71 93 3d c9 97 1b 3f
       -0.37219214 0.2338653 0.07199288 0.6077848
000140 30 ab 98 be 88 5e e1 be bf ff 8a 3e 80 e8 6e be
       -0.29818106 -0.44017434 0.27148244 -0.23330879
000150 30 da ca 3e 4c a1 de bd ae 42 a9 3e 82 c5 ed be
       0.3961959 -0.10870609 0.33058685 -0.4643975
000160 d6 a4 93 be ff 63 34 3e 48 ee 37 3e db 77 e8 bd
       -0.28836697 0.1761627 0.17961991 -0.113509856
000170 c9 50 b0 3e 18 5b b8 3e 29 db eb be 8d de 9d be
       0.34436634 0.36007 -0.46065643 -0.30833855
000180 b1 45 06 3f d4 17 5d be 48 98 51 be 92 58 0c bf
       0.5245009 -0.21591121 -0.20468247 -0.5482265
000190 2b 33 b3 be a8 b4 13 3e 87 83 a7 bd 05 1e e2 be
       -0.34999976 0.14424384 -0.08179384 -0.44163528
0001a0 bf aa 61 3c b2 46 82 be 64 fa 20 bf 66 e7 a2 be
       0.013773619 -0.2544456 -0.62882066 -0.31817168
0001b0 cf 78 0b bf 6e a5 ac be 2f c6 13 3f e3 e1 f7 3d
       -0.54481214 -0.33719963 0.5772428 0.12103631
0001c0 27 e4 4c 3e ca db 09 bf 8a 6b d7 be 54 9e 25 be
       0.20008908 -0.53850996 -0.42074233 -0.16173679
0001d0 50 bc b8 3d cd d8 02 bf 27 f6 82 be 69 03 b1 be
       0.09020293 -0.5111206 -0.25578424 -0.34572914
0001e0 4c 1f f8 3c f9 f9 ac be 5f d5 23 bd a0 45 b7 be
       0.030288361 -0.33784464 -0.03999841 -0.35795307
0001f0 ac 81 e0 be 04 81 ac be b4 6a 5f be 8b 15 e5 be
       -0.43848932 -0.3369218 -0.21818048 -0.44742998
000200 b3 db f7 3e 29 dd 81 be 0d 73 af 3e 5e 6d 38 3e
       0.48409805 -0.25364044 0.34267464 0.1801047
000210 39 80 0c bf bc 6a ae 3e f3 dc 22 be 7a 0c d8 bd
       -0.5488315 0.34065807 -0.15904598 -0.10549255
000220 e0 33 1a bf 2f fd 12 bf e5 30 f0 3d b6 54 4b be
       -0.60235405 -0.5741758 0.11728076 -0.19856533
000230 a7 16 67 3e 83 2c fd be 0e 09 d6 3e 99 e2 d8 be
       0.22567235 -0.49448022 0.41803783 -0.4236038
000240 20 8c cf bd 03 7c 13 3e 0b 65 98 3e 03 30 f9 3e
       -0.101341486 0.14402775 0.2976459 0.48669443
000250 5c 77 03 3f af 64 ea be d0 e5 e7 b7 a0 43 c5 be
       0.51354 -0.4577994 -2.764436e-05 -0.38528156
000260 f5 de 81 bd a2 f1 dc be 3b 41 09 3f 91 df d8 be
       -0.06341354 -0.431531 0.5361516 -0.42358068
000270 03 6f b5 3e e4 2e 2f 3e c3 fa 3f 3e 6d d5 e4 be
       0.35436258 0.17107731 0.18748002 -0.4469408
000280 c7 1a ca 3e bc eb 01 3e c9 14 2b 3d fe f4 16 bf
       0.39473554 0.12687582 0.04176787 -0.5896758
000290 9b 3a 78 3e 58 1e 4f bd 52 d8 ab be 2b 20 fe 3e
       0.24241106 -0.050566047 -0.33563477 0.49633917
0002a0 bf 8c 7a 3d 8d 36 d6 be ea c0 95 be a2 3d 66 3d
       0.061169382 -0.41838494 -0.29248744 0.05621112
0002b0 4a 0b d8 3e 1f fc 16 be 19 d5 aa be 8f 43 57 be
       0.42196113 -0.14744614 -0.33365706 -0.21021865
0002c0 e1 c1 dc be 45 89 4b 3e cf c7 ee 3e 1b 24 0b bf
       -0.43116668 0.19876583 0.46636817 -0.5435197
0002d0 f6 98 70 3e 1a aa 66 3e 54 8d d5 3d 73 53 10 be
       0.2349585 0.22525826 0.10427347 -0.14094333
0002e0 60 6b bf 3e 8d 6e 9b 3e 59 04 7e 3e 82 56 cb bd
       0.37386608 0.3035778 0.24806346 -0.099286094
0002f0 da 78 1c be 27 f1 70 3d 4b cc 17 be 24 cc 2f be
       -0.15280476 0.05882373 -0.14824025 -0.17167717
000300 0d df c6 3e 48 62 fb 3e ce 97 69 bd 70 6d b7 be
       0.3884205 0.4909842 -0.057029538 -0.35825682
000310 b9 54 81 3c a9 8d 0b bd 6e 56 16 3e d8 71 40 3e
       0.01578747 -0.034070645 0.14681408 0.18793428
000320 14 f7 05 bf bc f7 5b be 7d 37 ff 3e e0 5d 66 3e
       -0.52330136 -0.21481222 0.49847022 0.22496748
000330 f7 30 83 bc 1a 68 dc be c3 b2 b4 be e7 f1 e4 be
       -0.01601456 -0.43048173 -0.35292634 -0.44715807
000340 fb 65 89 be 34 9f 47 3e 8d d7 e8 3e cc c4 46 3e
       -0.26835617 0.19494325 0.45476952 0.1941101
000350 b3 97 02 bf 10 6a da be 68 d4 1c bd 64 eb 0e 3f
       -0.51012725 -0.42659044 -0.038288504 0.5582793
000360 37 be e1 3c f4 53 81 be be 22 75 3e 56 6d ad be
       0.027556522 -0.25259364 0.23939034 -0.3387248
000370 ba 46 83 be dc c1 d7 3e a7 11 80 be b1 4d 19 be
       -0.25639898 0.4214009 -0.25013468 -0.14971043
000380 7f 54 13 bf d8 be b2 3e c9 61 f8 3e 12 87 57 3e
       -0.57550806 0.34911227 0.48512104 0.21047619
000390 f7 ba 06 bf a6 a4 df be 56 fa ef be e8 5e 03 3f
       -0.52629036 -0.43680304 -0.4687068 0.5131669
0003a0 08 2e 55 3e b6 c5 f8 3e 06 28 ba 3e db 10 da 3d
       0.20818341 0.4858834 0.3635866 0.10647746
0003b0 12 0f bc bb f4 ee e9 be 61 08 f8 be 73 41 0a bf
       -0.005739101 -0.4569012 -0.48443893 -0.5400612
0003c0 6e 37 76 3e 8a 35 96 be 3c 68 ef bd 8e 12 b2 be
       0.24044582 -0.29337722 -0.11689803 -0.3477978
0003d0 1b 11 f4 bd a3 0c d0 be 0e 57 be be ca 1c 5b 3e
       -0.11917325 -0.4063464 -0.37175792 0.21397701
0003e0 29 c5 2f be 84 cc ac 3e cd a4 63 be 6e a1 d8 be
       -0.17165054 0.33749783 -0.22230835 -0.4231066
0003f0 60 c2 51 bd d5 ac b9 be 12 0e 35 be 9f 8d fd be
       -0.05121076 -0.36264673 -0.17681149 -0.4952211

layer_first.bias f4 [128]
000000 02 d2 04 3c 8d 78 06 3f 6c de fb be 1d d1 61 be
       0.00810671 0.52527696 -0.49193132 -0.22052427
000010 50 69 ac 3e 1f ce 00 be 12 0a f2 bd 10 69 76 be
       0.33674097 -0.12578629 -0.11818327 -0.24063516
000020 d5 c2 cb 3e 86 fe 90 3e d7 73 3d 3e 9a 1e a6 be
       0.39797083 0.28319186 0.1850122 -0.32445222
000030 a7 f4 ef be c0 c5 7f 3d 71 29 2f 3e d3 7b 88 be
       -0.46866342 0.06244445 0.17105652 -0.2665697
000040 18 6b 25 be 12 a4 c7 3e 1e 61 3c 3d b8 62 d5 3c
       -0.16154134 0.38992363 0.045991056 0.02604805
000050 1d 7f 11 be ec d8 05 bf c0 f8 0a bf 8e 4d 8d be
       -0.14208646 -0.5228412 -0.5428581 -0.27598232
000060 f6 42 96 be 3d 31 38 3e 48 1b 2c be f4 4a 67 be
       -0.29347962 0.17987533 -0.16807282 -0.22587186
000070 2c eb 0c 3f 5d ee 4d 3e bc bc d2 3e f0 1a 8f be
       0.55046344 0.2011046 0.41159618 -0.2795024
000080 fb 7c 71 be b2 4a 59 3e 0b f4 c4 be c2 3c c1 be
       -0.23582833 0.212199 -0.3846744 -0.37741667
000090 a1 70 e4 bc 6b 3d 58 be f6 99 dd be ee 56 af 3e
       -0.027885737 -0.21117179 -0.43281525 0.3424601
0000a0 a8 b6 ed 3e 25 d0 bf 3d fe df cd bd 8d e7 08 bf
       0.46428418 0.09365872 -0.10052489 -0.5347832
0000b0 55 57 57 be 36 83 16 3e 25 63 8b 3e 1f 7a 95 bd
       -0.21029408 0.1469849 0.2722408 -0.072986834
0000c0 b8 bb 69 be c6 b7 a4 3e 19 6b eb be b2 d3 ba 3e
       -0.22825515 0.32171458 -0.45980147 0.36489636
0000d0 ac 5c 65 be 72 c4 10 3c 1e aa e9 bd 82 5b 8f 3d
       -0.22398633 0.008835899 -0.114094004 0.069998756
0000e0 7c a9 32 be e7 f0 d6 3e 72 e5 75 bc 74 bf e6 3e
       -0.17447466 0.4198067 -0.015008317 0.45067942
0000f0 c2 1b 0e 3f d6 03 90 be 14 a5 d7 be ad 29 ed 3e
       0.55511105 -0.28127927 -0.42118132 0.4632086
000100 92 a3 e7 3e ff b4 e1 be 00 ca 36 bd 42 c0 11 bf
       0.45241982 -0.44083402 -0.044626236 -0.5693399
000110 d7 fa f1 be d3 5f e4 3d 21 48 1d 3e 1a a5 fa 3d
       -0.47261688 0.111510895 0.15359546 0.12238522
000120 37 e7 20 be c7 5b 08 3f bf 0c a9 3d 57 6e ae be
       -0.15713201 0.5326504 0.08254384 -0.34068558
000130 5b e1 05 bd 18 fa 0d 3e 2a 09 4f 3e fc 03 d1 be
       -0.03268562 0.13864934 0.2021834 -0.40823352
000140 bb 93 5d 3e 8d 04 97 be f5 a0 f5 be cd 75 a1 be
       0.21638386 -0.2949566 -0.47974363 -0.31535187
000150 92 8a 0e 3f ff b2 fc 3e b1 5a 04 3f ce 85 ad 3e
       0.5568019 0.49355313 0.51700884 0.33891147
000160 40 50 df 3e 01 44 9e bd 32 a6 a2 be 45 b3 93 3e
       0.43615913 -0.077278145 -0.31767422 0.2884771
000170 35 2d 99 be 21 7e c7 be e1 cb 3c be cb 23 f8 3d
       -0.29917303 -0.38963416 -0.18437149 0.12116202
000180 f5 2c 98 3e 24 a1 65 be 83 fb ad be 16 7f 9f 3d
       0.297218 -0.22424752 -0.3398095 0.077879116
000190 1e 3d ae be b1 74 c0 be e6 15 9a 3e 13 a0 c6 bd
       -0.34031004 -0.37589028 0.30094832 -0.096985005
0001a0 0e 0f 07 3f 6a c7 0f 3f 75 d3 30 3e 75 77 4b 3e
       0.52757347 0.56163657 0.17268164 0.19869788
0001b0 45 25 08 3e ac 25 14 3c b3 ff 2b bd f2 02 02 3c
       0.13295467 0.009042185 -0.0419919 0.0079352725
0001c0 ae c5 5c 3e 1c 6c 09 3f 76 37 19 be ac e9 79 be
       0.21559784 0.53680587 -0.14962563 -0.24405545
0001d0 6c 2b 0f be 5b d0 8e be 74 0e c9 3d 10 a7 dc 3e
       -0.13981408 -0.27893338 0.0981721 0.4309621
0001e0 5e 27 e7 3e fe b7 87 3e 31 8b d9 be f5 a6 9e be
       0.45147222 0.26507562 -0.42489007 -0.30986753
0001f0 16 e5 01 be 6f f2 d9 bd 08 80 42 3d 7f ad 07 bf
       -0.12685046 -0.10641944 0.04748538 -0.5299911

bn_first.weight f4 [128]
000000 f3 38 79 3f b2 af 79 3f dc 09 5c 3f 00 91 78 3f
       0.9735252 0.97533715 0.85952544 0.9709625
000010 55 72 7f 3f aa a0 81 3f e9 13 7c 3f 37 fd 4c 3f
       0.9978383 1.0127156 0.9846788 0.80073875
000020 7e c9 76 3f c6 31 69 3f 13 08 82 3f f2 15 5d 3f
       0.964012 0.91091573 1.0158714 0.8636161
000030 52 38 61 3f 47 63 80 3f 5f fd 70 3f 1a b0 6c 3f
       0.8797656 1.0030297 0.94136614 0.9245621
000040 3b cb 83 3f 80 ae 7e 3f 9f b4 65 3f 8c 67 65 3f
       1.0296396 0.99485016 0.8972873 0.89611125
000050 52 4b 5c 3f f3 78 5a 3f fa 34 8b 3f 30 66 7f 3f
       0.8605243 0.85340804 1.0875542 0.997653
000060 b0 46 76 3f 5b c2 5e 3f 14 1e 62 3f bb c6 66 3f
       0.9620161 0.8701531 0.88327146 0.9014699
000070 89 49 7d 3f 38 b3 69 3f 05 5c 82 3f 1b 0a 80 3f
       0.9894033 0.9128909 1.0184332 1.0003084
000080 da 6d 60 3f a3 fc 5e 3f ec 78 83 3f a3 72 54 3f
       0.8766762 0.87104243 1.0271277 0.8298742
000090 6c b4 83 3f da c4 80 3f 69 2e 81 3f 23 29 62 3f
       1.0289435 1.0060074 1.0092288 0.8834402
0000a0 ec 84 7f 3f 74 85 71 3f a8 11 7c 3f 81 1c 59 3f
       0.998122 0.9434426 0.9846444 0.8480912
0000b0 a0 64 70 3f 04 f0 7e 3f a4 d2 6f 3f a8 2c 63 3f
       0.9390354 0.99584985 0.9368079 0.88740015
0000c0 4e bf 7c 3f df 2b 76 3f d0 9e 5e 3f e9 24 76 3f
       0.9872941 0.9616069 0.8696108 0.9615007
0000d0 fa 2f 6c 3f 47 b7 86 3f d2 29 61 3f 41 33 7e 3f
       0.92260706 1.0524682 0.8795444 0.9929696
0000e0 2a c8 67 3f c5 c3 78 3f 85 61 80 3f c4 71 64 3f
       0.905398 0.9717372 1.0029761 0.8923609
0000f0 e5 aa 7a 3f 38 08 76 3f ac 46 88 3f a6 ca 5f 3f
       0.97917014 0.9610629 1.0646567 0.8741859
000100 da 3a 87 3f d4 e5 71 3f dd 20 82 3f fe df 69 3f
       1.0564835 0.94491315 1.0166279 0.9135741
000110 6d b8 6e 3f f0 31 75 3f 65 4d 84 3f 9d a9 7b 3f
       0.9325016 0.95779324 1.0336119 0.98305684
000120 1b 74 64 3f cf a1 4c 3f e4 41 61 3f 13 5c 79 3f
       0.8923966 0.799344 0.87991166 0.9740612
000130 cf 7e 7d 3f 2c 4e 8b 3f 2f ee 88 3f a8 46 65 3f
       0.9902162 1.0883231 1.0697688 0.8956094
000140 4c ca 77 3f 85 45 79 3f bb 44 7f 3f 91 4a 82 3f
       0.96793056 0.97371703 0.9971425 1.0179006
000150 e5 3d 82 3f d0 14 82 3f 56 4f 81 3f ba 7b 6f 3f
       1.0175139 1.0162601 1.0102336 0.93548167
000160 d6 f4 78 3f 12 47 79 3f c3 3b 72 3f d3 21 76 3f
       0.9724859 0.9737407 0.9462244 0.9614536
000170 96 fb 6f 3f a3 61 6e 3f 58 4b 74 3f 1b a2 7b 3f
       0.93743265 0.9311773 0.95427465 0.9829423
000180 52 e0 72 3f 9d 3a 4b 3f d8 7d 6e 3f af 81 7d 3f
       0.94873536 0.7938631 0.9316077 0.99026006
000190 77 26 79 3f 77 ae 6a 3f b7 da 74 3f e7 97 7c 3f
       0.9732432 0.9167246 0.9564623 0.98669285
0001a0 3d e0 6f 3f ba 70 5a 3f e9 d8 64 3f 35 da 6c 3f
       0.93701535 0.8532826 0.8939348 0.9252046
0001b0 b1 00 65 3f 19 39 70 3f f3 fd 7b 3f cc 98 81 3f
       0.8945418 0.93837124 0.9843437 1.0124755
0001c0 6a 9d 71 3f 67 ec 45 3f 9b e2 70 3f 37 61 54 3f
       0.9438082 0.77313846 0.9409577 0.8296084
0001d0 19 f5 81 3f c5 c6 75 3f af b5 80 3f ba ab 5e 3f
       1.0152923 0.96006423 1.0055445 0.86980784
0001e0 73 46 54 3f c3 f8 4e 3f 78 40 70 3f 68 90 68 3f
       0.82919997 0.8084833 0.9384837 0.90845346
0001f0 98 9d 58 3f 1f 6d 68 3f ca 20 87 3f b5 26 81 3f
       0.8461547 0.90791506 1.0556881 1.0089937

bn_first.bias f4 [128]
000000 1c 1a 63 be 93 b1 34 be c0 e4 20 3e d9 2e 48 bd
       -0.22177929 -0.17645864 0.15712261 -0.048872802
000010 ed 42 1d be 61 3d 90 be c8 77 1f 3e 27 2b c6 be
       -0.15357561 -0.28171828 0.15573037 -0.38704798
000020 5b 00 ce bd b6 11 02 be 4e c8 c2 bd af 66 3b bf
       -0.100586616 -0.12702069 -0.09510861 -0.7320356
000030 01 25 3d 3e 64 a1 a7 bd 18 55 83 3e d3 de 13 be
       0.18471147 -0.0818508 0.2565086 -0.1444047
000040 4c 49 a3 be 77 db 61 3d 84 19 cf bd ed c4 f4 bc
       -0.3189186 0.05514094 -0.101122886 -0.029879058
000050 1a fe 0f bf c7 10 9c 3a 76 fb dc 3d c7 3b d4 3d
       -0.56247103 0.0011906856 0.1079015 0.10362964
000060 a4 e1 5d 3d 2d ba 89 be 97 84 83 bc 77 cc 56 be
       0.054170266 -0.26899853 -0.016054435 -0.20976435
000070 8d 09 7c bd 58 61 43 be 23 39 63 be b0 a0 6e be
       -0.061532546 -0.19080102 -0.22189765 -0.23303485
000080 5f df 6d be a9 1b d4 be fa 09 60 be b4 63 31 bf
       -0.2322974 -0.41427353 -0.21878806 -0.6929276
000090 d0 63 a3 bd 08 46 7a 3e 6b 46 a3 bd 79 fc c2 be
       -0.07978022 0.24440777 -0.079724155 -0.38083246
0000a0 e1 87 5a be f6 87 6c be ac b3 21 3d 48 22 53 be
       -0.21340896 -0.2309874 0.03947799 -0.20618546
0000b0 1b 33 cc bd f7 b1 1f bd 11 21 fa be 9d 34 29 be
       -0.09970685 -0.03898808 -0.48853353 -0.16523977
0000c0 07 27 ca bd 2e 5c c7 bd dc 78 93 bf bb 44 c9 3d
       -0.09870725 -0.09734379 -1.1521258 0.098275624
0000d0 8b a2 71 be a5 d3 cd bd 1a 90 3c bf c9 a4 98 bc
       -0.23597161 -0.100501336 -0.7365738 -0.018633263
0000e0 26 83 e9 be e0 a3 6c be 8a 6c 43 be 44 1b a9 be
       -0.4560787 -0.23109388 -0.19084373 -0.33028615
0000f0 ee c2 fb 3d eb af 5a 3e cf 24 e6 bd 96 7c 25 bf
       0.12293039 0.2135617 -0.112374894 -0.6464323
000100 fb ae 9c 3d b7 3e 29 bd 31 51 a0 bd 93 37 83 3e
       0.076505624 -0.041319575 -0.07827986 0.25628337
000110 34 48 f0 be 98 d1 d5 bd fd bc d9 bd 82 73 8f 3b
       -0.46930087 -0.104403675 -0.1063175 0.0043777833
000120 84 30 f7 be 93 3b 39 be a2 54 c1 bc 14 f5 81 3d
       -0.48279202 -0.18089132 -0.023599926 0.06345573
000130 d2 47 55 be b9 43 da 3d ef 82 a6 bc ec b9 bc be
       -0.20828179 0.10657448 -0.020326106 -0.36860597
000140 bb ed 90 be 9f 01 36 be 5d 29 3b be 7b 9d a1 bd
       -0.28306374 -0.17774056 -0.18277498 -0.07891365
000150 f3 4c bb bd 26 47 1f bd 0b 68 bb 3d ee 35 11 be
       -0.09145536 -0.03888621 0.09150704 -0.14180729
000160 68 1a c1 be 82 fb 87 be 9b ac db be 06 e4 88 bc
       -0.3771546 -0.26559073 -0.42905125 -0.016710293
000170 1b 54 23 be f6 82 b8 bd d6 4f 66 be a9 ff 0e bf
       -0.15950052 -0.09009354 -0.22491392 -0.55858856
000180 2a 21 eb bb 9a 0b 72 bf b3 e9 f1 be 94 86 d1 bd
       -0.0071755843 -0.9454895 -0.4724861 -0.10230747
000190 bd b9 25 be 9b 8c c3 be 1a 3b 9a bc a3 76 3f 3e
       -0.16184135 -0.3819321 -0.01882701 0.186976
0001a0 51 67 3c be 85 ab 4d 3e 9c 06 07 3e ff a5 4b bd
       -0.18398787 0.20084961 0.13186115 -0.049718853
0001b0 8c f4 ce be a0 34 a7 be d4 a6 0e 3e fa 8b 41 3a
       -0.4042095 -0.32657337 0.13930827 0.0007383224
0001c0 c5 44 84 3e 78 7d 13 bf df 86 f5 bc a6 5e 67 3f
       0.25833717 -0.57613325 -0.029971538 0.903788
0001d0 d6 63 88 bd 90 56 09 bb d7 7d fe bd e2 03 1a bf
       -0.06659667 -0.0020956136 -0.12426346 -0.60162175
0001e0 33 5d 46 bf e9 c0 43 be 0d e7 a3 bd 7f f3 f0 bc
       -0.7748596 -0.19116558 -0.08003054 -0.029412983
0001f0 a3 13 17 be f9 2b 19 be dd 2c 62 3d b7 3c 27 bd
       -0.14753585 -0.1495818 0.055218566 -0.040829387

bn_first.running_mean f4 [128]
000000 4a 42 80 42 32 a8 64 42 14 35 df 42 de 44 b7 41
       64.12947 57.164253 111.60367 22.908627
000010 eb 92 da 42 e5 05 63 42 e4 91 7d c2 e2 7b 35 42
       109.28695 56.755756 -63.39247 45.37098
000020 f8 e0 d1 c2 9b 43 00 c3 0e 88 c5 42 d8 c6 22 42
       -104.93939 -128.26408 98.76573 40.694183
000030 b4 0f 8e 42 2e ab 19 c2 bc 2e 0d 43 01 4e b2 41
       71.03067 -38.417168 141.18256 22.288088
000040 64 4f 00 c3 42 ea d8 41 aa d4 9e 42 cf 71 d2 c1
       -128.31012 27.114384 79.41536 -26.30557
000050 7c 8a 7e c1 23 7a b8 c1 d4 89 78 c2 a3 d7 43 42
       -15.90881 -23.059637 -62.134598 48.960583
000060 72 dd e7 c2 0c 17 16 c2 94 ae 16 41 66 bd 77 c2
       -115.93251 -37.522507 9.417622 -61.93496
000070 c9 e2 bb 42 28 cc 1c c2 33 34 96 42 b3 c0 94 c2
       93.94294 -39.19937 75.10195 -74.376366
000080 88 53 48 c1 91 1e 70 c2 8b 23 4b c2 c9 1e 19 c3
       -12.520393 -60.02985 -50.78471 -153.12025
000090 68 c4 df 41 33 58 97 c2 55 4a 1f c2 42 a4 10 c3
       27.970901 -75.672264 -39.82259 -144.64163
0000a0 6d 20 1c c2 10 f6 12 c3 6d b0 ed 41 5a 35 36 42
       -39.031666 -146.96118 29.711145 45.5521
0000b0 53 6d 48 c2 10 97 3a c3 e2 15 11 42 c5 3d b3 c2
       -50.106762 -186.59009 36.27137 -89.62064
0000c0 26 1c 80 42 e6 eb 09 41 d0 ff 51 c2 2a f4 8d c2
       64.05498 8.620092 -52.499817 -70.97688
0000d0 88 69 b2 42 11 4f b6 41 13 a4 f4 c0 db 6c 70 42
       89.206116 22.788607 -7.6450286 60.106304
0000e0 e1 02 bf c2 6b df 9c 41 9e 2e 0c c3 e6 c2 24 c2
       -95.50562 19.60909 -140.1821 -41.19033
0000f0 28 a1 86 42 69 21 aa 42 2e 44 87 c1 66 66 2d c2
       67.31476 85.065254 -16.90829 -43.35
000100 ad 1a 9a 42 e5 7e 21 c2 81 68 8e c2 2c 5c 95 42
       77.0521 -40.37392 -71.20411 74.68002
000110 01 47 e9 c2 a6 80 fe c1 a0 4f 17 c2 0f de 84 42
       -116.63868 -31.812817 -37.82776 66.43371
000120 d8 52 c4 41 4e 42 cd 41 84 a4 1a c3 9c ae fa 42
       24.540451 25.657375 -154.64264 125.341034
000130 3c 9f 3d c3 8b 78 28 43 54 0f 35 42 0c 68 4a c3
       -189.62201 168.47087 45.26497 -202.40643
000140 00 85 f0 c1 86 1f ff c2 ce 39 43 c2 62 ee 95 c2
       -30.064941 -127.56157 -48.80645 -74.96559
000150 24 b5 99 c2 58 14 b1 c2 d0 5e 0b 43 b3 14 69 c2
       -76.85379 -88.539734 139.37036 -58.270214
000160 27 16 78 42 3e 4f f1 c2 78 4e 31 42 18 06 8d 42
       62.021633 -120.65477 44.32663 70.5119
000170 cf 7e e1 41 21 6a 0c c3 9e e9 b0 c2 d9 31 97 41
       28.186918 -140.41457 -88.45628 18.89934
000180 d7 4f 92 41 e4 98 3c c3 64 a3 cb c2 33 95 84 c2
       18.288984 -188.59723 -101.81912 -66.291405
000190 89 b2 6c c2 23 45 a4 41 3a ea 16 c2 a4 5f ee 42
       -59.17435 20.533758 -37.728737 119.1868
0001a0 70 7c 96 42 6c 88 2a 43 fd 3e 9a c2 e7 a3 a9 42
       75.24304 170.5329 -77.123024 84.82012
0001b0 ed 30 22 c3 c8 38 02 c3 9c c6 12 c2 b0 b2 c4 c2
       -162.19112 -130.2218 -36.693954 -98.349
0001c0 50 aa fe c1 56 c4 29 c2 bd fa 2f c3 1d ac 82 bf
       -31.83316 -42.441734 -175.97945 -1.0208775
0001d0 7e 96 63 41 f6 c9 0b 43 b4 92 0d 42 aa 21 87 42
       14.224241 139.78891 35.393265 67.56575
0001e0 5c c0 1f c3 b8 19 7d 42 a7 42 14 c3 ba 93 1c 43
       -159.7514 63.275116 -148.26036 156.57706
0001f0 8a 8b fe c2 9b 54 17 42 74 6b 99 42 94 c9 9d 42
       -127.27254 37.832623 76.70987 78.89371

bn_first.running_var f4 [128]
000000 13 8a a9 44 d7 b4 69 44 8a 05 30 44 36 a7 b8 44
       1356.3148 934.8256 704.08655 1477.2253
000010 e5 97 39 44 28 3d 3f 44 e5 1a ad 43 c0 99 17 43
       742.37335 764.95557 346.2101 151.60059
000020 2c de 5d 44 7e d3 a9 43 eb 2f df 44 19 26 a6 43
       887.47144 339.65228 1785.4974 332.29764
000030 98 27 62 44 e9 a9 68 43 2d 7d 59 44 85 1f 18 44
       904.61865 232.66371 869.9559 608.4925
000040 c0 f6 41 44 68 e2 58 44 08 66 94 43 33 65 66 44
       775.85547 867.5376 296.79712 921.58124
000050 d1 70 6d 44 cd 3f 8a 43 f0 6f 94 44 65 a8 a4 44
       949.76276 276.49844 1187.498 1317.2623
000060 97 95 e6 44 86 5f 8e 44 e8 a6 9e 44 d7 05 5f 44
       1844.6747 1138.9851 1269.2158 892.09125
000070 61 d4 07 44 a0 c1 66 44 b2 a5 16 43 16 3a 93 44
       543.3184 923.0254 150.64725 1177.8152
000080 c4 4f 83 44 a2 88 a3 44 d4 0e 2a 44 fa 76 bd 44
       1050.4927 1308.2698 680.2317 1515.718
000090 29 86 9e 44 65 ad 30 43 c6 13 1c 44 3c 52 7b 44
       1268.1925 176.67732 624.30896 1005.2849
0000a0 c6 fc c4 43 f6 43 7e 44 e1 99 49 44 09 52 1c 44
       393.9748 1017.0619 806.40436 625.2818
0000b0 fa b1 ad 44 50 da 9d 44 47 bb 38 43 c2 6f b1 44
       1389.5618 1262.8223 184.73155 1419.4924
0000c0 36 c6 d5 42 05 fc c4 44 f8 a0 fd 43 4c e3 cb 44
       106.88713 1575.8756 507.25757 1631.103
0000d0 26 7a ee 43 35 d5 96 44 94 6c 95 44 ba a6 c3 43
       476.95428 1206.6627 1195.3931 391.30255
0000e0 9c 16 1a 44 e4 6f 19 44 dd 3d f0 43 b3 d1 51 44
       616.3533 613.7483 480.4833 839.27655
0000f0 07 29 a6 43 06 b0 0a 44 d1 f7 69 43 1a b8 b0 42
       332.32053 554.75037 233.96803 88.35957
000100 77 b9 9b 44 64 cc c9 43 2b ca 34 43 3e 01 80 44
       1245.7958 403.5968 180.78972 1024.0388
000110 1b b7 1e 44 c3 e1 51 44 77 5d 3c 44 b9 d9 0e 44
       634.861 839.5275 753.4604 571.4019
000120 fa 4f 5e 43 60 2b 0c 44 ef 23 83 43 1e a5 8e 44
       222.31241 560.67773 262.28073 1141.1599
000130 10 3a b6 44 d2 71 6c 44 26 9f dd 43 cf 8e ae 44
       1457.8145 945.77844 443.24335 1396.4628
000140 97 8e f7 43 67 2e cf 43 16 96 18 44 45 8a 08 44
       495.11398 414.36252 610.3451 546.16046
000150 67 ed e3 43 c3 04 a5 44 86 18 fc 43 3b ff 9f 44
       455.8547 1320.1488 504.1916 1279.976
000160 3c 28 96 44 43 1e 33 43 f1 ec ac 44 49 ea bb 44
       1201.2573 179.11821 1383.4044 1503.3214
000170 1d 11 55 44 41 23 8b 44 f6 d3 f0 43 3d 2c a8 44
       852.2674 1113.1017 481.65594 1345.3824
000180 47 66 3c 44 7b 9f b0 44 96 c6 1e 44 1a 74 71 43
       753.5981 1412.9838 635.1029 241.45352
000190 e3 64 18 43 90 4d 8d 44 44 52 86 43 bc 5b 9f 44
       152.39409 1130.4238 268.6427 1274.8667
0001a0 19 9c 8b 44 3b ea 03 44 4b 7a ca 42 e0 54 21 44
       1116.878 527.65985 101.23885 645.3262
0001b0 52 2f 89 44 2b 55 d3 44 d9 05 48 44 b8 72 7f 44
       1097.4788 1690.6615 800.0914 1021.7925
0001c0 21 00 a1 43 c7 0b 42 42 dc 30 a3 44 00 d1 e1 44
       322.001 48.5115 1305.5269 1806.5312
0001d0 d4 5f 0a 44 11 ee 62 44 11 01 51 44 c9 a5 ff 43
       553.4973 907.7198 836.01666 511.2952
0001e0 73 d1 2c 44 0e d6 f9 43 dd e4 4d 44 c5 2d 28 45
       691.27264 499.6723 823.576 2690.8606
0001f0 de 58 94 43 2b 74 b8 43 c9 7c dc 44 be be 3a 44
       296.69427 368.90756 1763.8995 746.98035

layer_second.weight f4 [64, 128]
000000 ba e2 90 3d d8 17 48 bd e0 b2 0a be 66 94 33 be
       0.07074495 -0.048850864 -0.13544798 -0.17537078
000010 71 5e f4 3d ab f8 30 be 38 07 90 3d 85 91 27 bb
       0.11932076 -0.1728236 0.07032627 -0.0025568914
000020 d9 ec 33 bb f8 de a9 3c 8c b5 71 bc 92 9e 7f 3d
       -0.0027454405 0.020736203 -0.014752757 0.062407084
000030 08 e5 57 3d e0 94 1a be 35 84 83 3d f9 94 af bd
       0.052708656 -0.15095854 0.06421701 -0.08573336
000040 24 cf 7c 3c 24 09 71 bd 34 4f 5d 3d 06 cd a2 bd
       0.015430246 -0.058846608 0.054030612 -0.07949261
000050 4f 7b 00 bd a8 ec 79 bc b7 cd 52 3d 6e a8 a3 bd
       -0.031367596 -0.015254177 0.051465716 -0.0799111
000060 2c 05 c2 bd e9 00 96 3b 9f 50 a8 bd 7b 7c bd bb
       -0.09473643 0.004577745 -0.08218502 -0.0057826615
000070 6e be 1b bd ea 36 5d 3c 54 76 65 bc 56 20 00 3c
       -0.038023405 0.013501862 -0.014005262 0.0078202095
000080 bc d3 c7 3d 86 a0 b9 3c 6f 40 4b 3b 2f d5 a7 3c
       0.09757182 0.022659551 0.0031013747 0.020487396
000090 a2 d3 a6 3d 79 45 10 bc d4 a7 56 bb 4b cc 6b 3d
       0.081458345 -0.008805626 -0.0032753842 0.057567876
0000a0 11 20 76 bd f2 a1 fd 3b ca c2 b0 bd b6 15 0e be
       -0.060089175 0.0077402527 -0.08630903 -0.1387547
0000b0 63 bb 02 bd 0f 7f 4c bd a5 7b 1e 3d c3 c7 a9 bb
       -0.031916987 -0.04992586 0.038692135 -0.005181284
0000c0 56 cb 9d bd 06 69 f4 3d e7 e3 fb 3c e9 d6 2b be
       -0.07704799 0.11934094 0.03074832 -0.167812
0000d0 85 eb ee bb c2 f4 23 be 6d dc aa bd 50 e3 d2 bd
       -0.0072912597 -0.16011336 -0.08342824 -0.10297263
0000e0 19 86 c5 bd ca c6 0e be 6b 55 05 bd a6 7b bd bd
       -0.09644718 -0.1394302 -0.032552164 -0.092521
0000f0 c3 83 bf bc 9e 57 1e bd 8d 8c ac 3d 1c b7 c1 bc
       -0.023378259 -0.038657777 0.084252454 -0.023646884
000100 1a 89 1c 3b 87 cd 3e 3d d1 cc 9a bc ba b7 d2 bd
       0.002388543 0.046582725 -0.018896492 -0.10288949
000110 52 a4 b4 3c 91 6c 7b bd 78 89 7e 3d 54 05 ba 3d
       0.02205101 -0.061382834 0.06214282 0.090830475
000120 06 9b 39 3c c2 8b 5d 3c 87 68 21 bd ba 18 d4 3c
       0.011328464 0.01352209 -0.039406326 0.025890697
000130 ec 20 23 3c b4 47 9e 3d 2b 47 b5 3d 52 f4 76 3d
       0.00995658 0.0772852 0.08851465 0.060291596
000140 e1 c9 8c bd 9c 20 9d 3c f6 19 ce bd ba a8 82 bd
       -0.06874443 0.019180588 -0.100635454 -0.06379838
000150 ca cf 8b bd ed 3f 1a be a9 c2 e7 3d 2f f3 b1 bd
       -0.06826742 -0.15063448 0.11316425 -0.08688962
000160 82 88 8d bd 2e a6 23 3c da 4b bc bd 90 51 5e 3b
       -0.069108024 0.009988351 -0.09194155 0.0033923127
000170 83 4c 3d bd 25 09 81 bd 01 d3 cc bd d5 05 70 bd
       -0.046215545 -0.06300572 -0.10001183 -0.05859931
000180 e9 fb a7 3d 88 b8 4c 3d 07 92 50 3d 5b e9 e0 bd
       0.08202345 0.04998067 0.050920513 -0.10982009
000190 97 c5 ba bd 1a dc 27 3c f4 66 a4 bd 6d c8 bb bc
       -0.091197185 0.010245347 -0.08027449 -0.022922719
0001a0 e8 ec d4 bc 1d 83 73 bd 69 61 b8 bd 30 31 7d 3b
       -0.025991872 -0.05945121 -0.090029545 0.0038634054
0001b0 9b da e0 bc 3a 76 16 3c bb f1 6c bd 7e 5e bf bd
       -0.02744799 0.009183461 -0.05784772 -0.09344195
0001c0 71 99 2d bd 44 6d 98 bd b6 3c 9e bd 50 be 58 3d
       -0.04238266 -0.07442716 -0.077264234 0.05291587
0001d0 74 fd f9 bd ee e3 7f 3d d6 f0 a6 bd 16 02 9e bd
       -0.122065455 0.06247323 -0.081514046 -0.077152416
0001e0 32 2a 39 bc 53 3f a5 3c d7 c4 56 bd c6 d0 af bd
       -0.011301564 0.020171797 -0.052433815 -0.08584742
0001f0 1b 30 89 bd 06 8b 88 bd 4a ec b3 bd 95 58 83 bd
       -0.066986285 -0.066671416 -0.08785303 -0.0641338
000200 c8 9f db 3c d2 e9 8b bd 78 9d 92 3d d1 3e 52 3d
       0.026809588 -0.06831707 0.07158941 0.051329438
000210 32 5f 80 bd 78 33 1e bd d4 38 39 3c 9f be 8b bd
       -0.06268157 -0.038623303 0.011305053 -0.068234675
000220 ff cb 94 bd d1 3f 88 bd e9 f9 a2 3d 37 9b 86 bd
       -0.07265472 -0.06652797 0.07957823 -0.06572574
000230 28 8f a9 3d b1 bd c8 bb ee c0 e7 3c 3f 08 92 3d
       0.08279258 -0.0061261286 0.028290238 0.07130479
000240 b0 aa 36 bc 80 e6 dc bd 6c df b3 bb 4c bc 90 3d
       -0.0111490935 -0.10786152 -0.0054892804 0.07067165
000250 82 06 c2 bd 33 8e 28 3c bf 14 9d bd 72 5f 33 3d
       -0.094738975 0.010287809 -0.07669973 0.043792196
000260 54 5e 1a 3d 18 90 6a bd 28 02 3a 3d ae 1d 4c bc
       0.037687615 -0.057266325 0.045412213 -0.012458248
000270 3c f8 79 3d a0 97 03 be 4b 4f 79 bb 60 76 2a 3d
       0.06102775 -0.12850809 -0.0038041647 0.041616797
000280 69 8f ce 3d 6a ec 84 bc 06 8d db bd 82 f3 3b 3c
       0.10085947 -0.016226012 -0.107202575 0.011471631
000290 be ef ac bd 54 8c b8 bb 2f 91 0b be dd 7f 8f bd
       -0.08444165 -0.005631963 -0.13629602 -0.0700681
0002a0 3c c6 e7 3c 76 f6 50 bd 0f 5d e2 bd e7 da 04 3d
       0.028292768 -0.051016293 -0.11052906 0.032435324
0002b0 84 b6 29 bd 84 44 eb 3c 5b f4 9b bd fc 56 00 bd
       -0.041433826 0.028719194 -0.076149665 -0.031332955
0002c0 13 0b bf bd b0 45 ce bc 87 24 93 3c ce d3 a2 3d
       -0.09328284 -0.025179714 0.017961754 0.07950555
0002d0 11 d0 02 3d 95 6e b3 3d 3b 55 d0 bb 8a 2a 11 3b
       0.03193671 0.08761326 -0.0063578165 0.00221506
0002e0 1f 2b 42 3d 1c 84 8d 3d f3 d9 e1 bd 67 75 ad 3d
       0.047404405 0.069099635 -0.11027899 0.08469658
0002f0 be f0 88 3d 28 93 52 bd e8 f3 02 bd 87 b3 a6 bd
       0.06686543 -0.05140987 -0.03197089 -0.08139711
000300 bb 79 0a 3d 01 c6 e8 bd 62 7e 37 3d 01 d2 a4 3c
       0.033807497 -0.11365891 0.044798262 0.020119669
000310 75 b8 e6 bd 75 71 09 bd c9 60 1c 3c fa a3 5d bb
       -0.11265651 -0.033555467 0.00954456 -0.0033819661
000320 49 fc 13 3d 89 0e 13 be ec eb a9 3c 75 35 ae 3d
       0.03612927 -0.14361013 0.02074238 0.0850629
000330 8b f2 cc bc 6e 0e 71 bd 28 58 be bb 3c 36 b4 bd
       -0.025017997 -0.05885165 -0.005808849 -0.08799407
000340 1a be 96 bc 68 0d 09 bb 84 59 8a 3c 0c 05 ac 3d
       -0.018401194 -0.0020912532 0.016888388 0.083994
000350 d6 e1 ab bd 33 bf 9a 3c 06 5e 5e 3d 0a 3f 9f bd
       -0.08392684 0.018889999 0.054288886 -0.077756956
000360 39 93 ac bd e5 7d a3 bd 32 a2 50 3d 7e ce 96 bd
       -0.08426518 -0.07982997 0.05093593 -0.07363604
000370 8e 79 df bd 7c d1 30 3b 3a e6 06 3c a9 ac db 3c
       -0.109118566 0.0026980331 0.008233601 0.02681573
000380 ec 15 58 bd 1e 47 dd bd 1d 67 08 3d 32 a4 ef 3c
       -0.05275528 -0.1080458 0.03330146 0.0292531
000390 ba 22 a2 3c 0d 57 41 bd bd 7e 8a 3c e7 45 b4 3d
       0.01979195 -0.04720216 0.016906137 0.08802395
0003a0 0b 83 ac bd 56 ea 00 bd d9 a9 6f 3d 1b e6 85 bd
       -0.08423432 -0.03147348 0.05851159 -0.0653803
0003b0 37 7d e3 bd 5e f4 8f b9 a8 84 4b 3d 69 04 61 3c
       -0.11107867 -0.00027457153 0.049687058 0.013733962
0003c0 34 eb 2b bd 53 d9 50 bd 3b 0b be 3c 6a c1 47 bd
       -0.041972354 -0.050988507 0.023198714 -0.04876844
0003d0 3c 4c ab bc c0 6f 4c 3d 35 d0 c2 bd e3 4a 4b 3d
       -0.020910375 0.04991126 -0.095123686 0.049631964
0003e0 63 e2 c4 bd fe a2 91 bc 83 32 4a bd fe 0e 72 bd
       -0.09613492 -0.017777916 -0.049364578 -0.05909633
0003f0 e1 26 10 be fe d9 87 3c 28 21 00 3d 7d d5 d0 bd
       -0.14077331 0.016583439 0.03128162 -0.1019697

layer_second.bias f4 [64]
000000 32 e7 ac bd f1 e6 f1 bc b4 85 40 bd 01 7b 44 3d
       -0.084425345 -0.029529067 -0.04700251 0.04796887
000010 77 27 8f 3b e1 67 81 bd bc d2 91 3d d3 f3 25 bd
       0.0043687182 -0.063186415 0.071202725 -0.040515732
000020 7d 93 23 bc 7b cf f5 3c d6 9b 71 bd 6c 95 05 bc
       -0.009983894 0.030006161 -0.058986507 -0.008153301
000030 db da f3 bc a8 b8 aa bc 15 6c 03 bd 26 77 67 3d
       -0.029767444 -0.020840004 -0.032085497 0.056510113
000040 6d a9 31 bd 61 5c 74 bd 0d b2 1c 3d 9b 98 ea 3c
       -0.043374468 -0.059658412 0.03825574 0.028637221
000050 66 f7 8a 3a f7 c2 e9 3b 6e ba b1 3d c8 21 f2 bc
       0.0010602295 0.0071338373 0.08678137 -0.029557124
000060 9f 73 a1 bd 72 2a b2 bd eb 19 bc 3c 26 5e 0d 3d
       -0.07883381 -0.08699502 0.022961577 0.034513615
000070 90 bb a2 3a 33 38 96 bd 2f 5a 8d bd ad 7e 76 bd
       0.0012415517 -0.07334938 -0.06901967 -0.0601794
000080 82 16 69 3d 7b 66 8d 3c 14 8c 49 bd a9 42 ab bd
       0.05690623 0.01726078 -0.049205855 -0.08362324
000090 b2 69 50 3d 7e 8b 7a 3a 91 fa b3 3d 91 71 94 bd
       0.05088205 0.0009557529 0.08788026 -0.072482236
0000a0 6e af 92 bd 1a 72 7a 3c 04 96 72 3d 49 1d 6f 3d
       -0.07162367 0.015285993 0.059225097 0.058377538
0000b0 b3 ae b3 3d 2d f0 65 3d f8 b6 21 3d 26 a2 5e bd
       0.087735556 0.056137253 0.039481133 -0.054353856
0000c0 cb e8 b1 3d 1f 06 20 bd b3 0a 69 3d 94 b3 14 3d
       0.0868698 -0.039068338 0.05689497 0.03630407
0000d0 d0 64 56 bd c5 ed 00 bc b6 dd f4 bb 78 ab 88 3d
       -0.052342236 -0.007869189 -0.007472719 0.0667333
0000e0 65 95 8a 3d da 57 9b 3c 33 0b 4e bd 6a c8 cc 3c
       0.06766776 0.01896279 -0.05030365 0.024997909
0000f0 6c f3 93 3d d4 09 40 bd b6 f5 90 3d cc 1c a4 3c
       0.072241634 -0.046884373 0.07078116 0.020033263

bn_second.weight f4 [64]
000000 d1 51 60 3f e6 87 4e 3f 19 68 61 3f ab 99 71 3f
       0.8762484 0.80676115 0.88049465 0.94375104
000010 44 9c 57 3f 2b 9f 78 3f e6 e1 33 3f 4a 92 6a 3f
       0.8422282 0.9711787 0.7026657 0.9162947
000020 db 18 6b 3f 76 c2 6c 3f 9a 9b 76 3f 88 27 56 3f
       0.918348 0.92484224 0.9633118 0.8365407
000030 4f 6b 5d 3f 59 75 6e 3f 21 ee 0a 3f 24 eb 66 3f
       0.86491865 0.9314781 0.54269606 0.90202546
000040 25 e8 71 3f 69 76 20 3f 9d 58 77 3f 86 9f 39 3f
       0.9449485 0.6268068 0.9661959 0.7250904
000050 77 64 6c 3f 25 bf 66 3f 6e 0c 1a 3f 48 05 6c 3f
       0.923408 0.90135413 0.60175216 0.9219556
000060 2a a9 6b 3f 4e 58 21 3f eb 8b 65 3f b1 9f 68 3f
       0.92055 0.6302537 0.8966662 0.9086867
000070 6d 5c 42 3f 0c 3b 6a 3f 4e 7d 53 3f fe 06 6f 3f
       0.7592228 0.9149635 0.82613075 0.93370044
000080 b3 eb 5b 3f a0 4f 6e 3f 40 d6 5d 3f 6c d9 77 3f
       0.85906523 0.9309025 0.86655045 0.96816134
000090 5b 0d 71 3f 68 54 16 3f 23 fc 6c 3f e9 60 75 3f
       0.94161004 0.58722544 0.9257223 0.95851
0000a0 6e 3a 75 3f b0 3d 62 3f 0b fc 70 3f c0 5e 6b 3f
       0.9579228 0.8837538 0.9413459 0.9194145
0000b0 d0 9d 6b 3f 52 81 70 3f 40 a0 20 3f 16 54 65 3f
       0.9203768 0.9394733 0.6274452 0.8958143
0000c0 1b f5 6f 3f 81 39 5f 3f f5 70 73 3f f5 b9 75 3f
       0.93733376 0.8719712 0.95094234 0.9598687
0000d0 43 72 66 3f cd a9 75 3f e5 02 76 3f 01 3f 4d 3f
       0.900181 0.9596222 0.96098167 0.8017426
0000e0 c3 97 35 3f 30 d6 7a 3f a7 e5 61 3f d6 37 5d 3f
       0.70934695 0.97983074 0.88241047 0.86413324
0000f0 29 04 7b 3f 78 97 72 3f 54 05 67 3f dc 6a 65 3f
       0.9805322 0.9476237 0.90242505 0.8961618

bn_second.bias f4 [64]
000000 b3 b5 2f be 05 dc 50 be eb fe 17 be 9d 9a c7 3d
       -0.17159157 -0.20396431 -0.14843337 0.09746287
000010 0c 56 f5 bd f9 9c 91 3c 43 da 96 be 53 57 38 be
       -0.11979303 0.017775046 -0.29463395 -0.18002062
000020 93 5c 7f 3e dd cd 0b 3d b6 e8 03 be 37 5f 9e 3d
       0.24937658 0.034131873 -0.12881741 0.077330045
000030 16 53 87 bd 99 9b 96 3c 07 fe cd be 87 64 5f 3d
       -0.06607644 0.018384742 -0.4023287 0.05453923
000040 4d 5d 28 3e b8 39 c3 be 2b f2 31 be 53 a0 f1 bd
       0.16441841 -0.38129973 -0.17377536 -0.117981575
000050 da 08 62 3e 59 b6 85 be 8b 74 ba be ce 3c c4 3d
       0.22073689 -0.26115683 -0.3641704 0.0958191
000060 54 d9 45 be f1 69 c4 be 56 12 6a be 86 0f 20 be
       -0.19321185 -0.38362077 -0.22858557 -0.15630922
000070 6b c1 7a be 3c b9 6f be 05 57 0b 3f 34 53 5f bd
       -0.24487846 -0.23410505 0.54429656 -0.054522708
000080 fe ef 31 bd f1 6a f6 bd e8 52 3d be 73 28 73 3c
       -0.043441765 -0.12032116 -0.18488657 0.014841187
000090 f0 8f 59 be 5f 17 d7 be 3a 8f 7b be c7 24 25 3e
       -0.21246314 -0.42010018 -0.24566355 0.1612731
0000a0 1b 08 5a 3d 82 d0 b9 bd e8 55 8b 3d 58 f6 2c 3e
       0.053230386 -0.09072973 0.06803495 0.16890848
0000b0 b8 9f 4f be 42 47 a2 3b 0c b9 ab be 02 3a a6 bd
       -0.20275772 0.0049523422 -0.33539617 -0.08116533
0000c0 ce 60 ec bd c4 18 c2 bd 54 27 08 3d 9b 21 b4 3d
       -0.115419015 -0.0947738 0.03324063 0.08795472
0000d0 25 29 46 be 5d 2d e5 3d 43 49 a2 3d 76 0b 3c be
       -0.19351633 0.11190293 0.0792413 -0.18363747
0000e0 17 57 be be c8 3b bd 3b 89 d0 52 3e 5f 65 f1 bd
       -0.3717582 0.0057749487 0.20587362 -0.11786913
0000f0 dd aa 51 bd b3 26 ad bd e2 a4 3c bd d7 7e 04 be
       -0.05118834 -0.08454647 -0.046055682 -0.1293901

bn_second.running_mean f4 [64]
000000 12 79 9e bf 17 4f 04 bf db 11 9b 3f 62 4b a5 3d
       -1.2380698 -0.5168318 1.2114824 0.08071019
000010 92 e2 ac 3f cb 68 07 3e 6a fe 08 bf da 7c ac bf
       1.3506644 0.13223569 -0.53513205 -1.3475602
000020 e6 73 04 c0 12 92 83 3e 63 56 f0 3f 02 d2 dd 3d
       -2.0695739 0.2569738 1.8776363 0.108310714
000030 45 9a 1b bf e9 1f 40 c0 56 0b 99 bf bd a2 cd 3d
       -0.6078227 -3.0019476 -1.1956584 0.100408055
000040 e8 31 4d 3f 5f e3 9d bf 47 f6 2d c0 ee 89 a6 3f
       0.80154276 -1.2335013 -2.7181566 1.3010843
000050 a1 cd 11 c0 04 f0 04 3e 5e ad fd bf f6 be cf bf
       -2.2781756 0.12982184 -1.9818532 -1.6230152
000060 ee 82 a7 3f d6 9c 33 bf 94 f4 c0 3e f7 c5 eb be
       1.3086832 -0.7016119 0.37686598 -0.46049473
000070 77 26 6a bf 55 cc 97 be da 3c 31 c0 75 1f 00 c0
       -0.9146494 -0.2964808 -2.769339 -2.00192
000080 cc 97 f1 3f 94 aa e9 bf c9 da 7d bf 9d f3 17 40
       1.887445 -1.8255181 -0.99161965 2.374244
000090 9c 21 d9 3e 51 8d 78 bf 80 e3 0d c0 80 cf 3b be
       0.42408454 -0.9709063 -2.2170105 -0.18340874
0000a0 a5 7e e9 3f 25 b1 6a 3f c1 ac 26 c0 6b 95 2e c0
       1.8241774 0.9167655 -2.604294 -2.7278697
0000b0 64 a8 e6 bf fc c2 b9 be c5 ec 58 bf f7 a5 c5 3f
       -1.8020139 -0.36281574 -0.8473628 1.5441273
0000c0 55 d3 b5 bf 09 d1 80 be c3 cf 8f 3d aa 23 65 3e
       -1.4205118 -0.2515948 0.07022049 0.22376886
0000d0 7f f2 68 3f e5 d8 2a 3d da de e9 3e 01 0c 5f bf
       0.9099502 0.041710753 0.45677835 -0.8712769
0000e0 21 68 29 c0 8f 26 9f 3f 5e 9e 25 c0 17 ff b3 3f
       -2.6469805 1.2433642 -2.587791 1.4062222
0000f0 e6 aa 12 3f 8d 70 fa 3f d1 48 f1 bf 4d 29 8e 3f
       0.5729202 1.9565598 -1.8850347 1.1106354

bn_second.running_var f4 [64]
000000 81 98 db 3f 2c 2f 8a 3f 10 a5 20 40 59 13 a2 40
       1.7155915 1.0795646 2.5100746 5.064862
000010 b8 f2 7c 3f ad 23 db 40 9f 25 a3 3f 1b 87 2e 40
       0.9880786 6.848105 1.2745856 2.7269962
000020 2d 71 30 40 9e 28 87 40 8a cf f0 3f 1a 12 21 40
       2.7569077 4.223708 1.8813336 2.5167298
000030 d2 1b a3 3f ff e5 e7 40 61 1d 97 3f ca ce 0b 40
       1.2742865 7.2468257 1.1805841 2.1844964
000040 77 11 c5 3f 05 48 a2 3f e1 85 58 40 72 17 80 3f
       1.5395955 1.2678229 3.3831713 1.0007155
000050 ac c0 27 40 19 d9 54 40 94 33 73 40 95 29 a4 40
       2.6211348 3.3257506 3.800023 5.130076
000060 f6 49 ab 3f 9d 88 42 3f 34 3c 85 40 c2 78 5b 40
       1.3381946 0.75989705 4.163599 3.4292455
000070 87 80 c3 3f 08 76 20 40 c2 79 12 40 99 c8 b5 40
       1.5273598 2.507204 2.2886815 5.680737
000080 86 1a da 3f f7 67 45 40 a2 da 7d 3f bc ba bc 40
       1.7039344 3.0844705 0.9916173 5.8977947
000090 c3 ab 90 40 58 6d b5 3f d3 90 7d 40 a1 21 c3 40
       4.520967 1.4173994 3.9619644 6.097855
0000a0 9d 99 56 40 ce 05 b1 3f 69 d1 07 41 ae 55 86 40
       3.3531258 1.3829896 8.488626 4.197959
0000b0 3c 35 a1 40 81 c6 cf 40 42 3d c4 3f 54 c8 bb 3f
       5.0377483 6.4929814 1.5331194 1.467051
0000c0 48 1c a8 40 74 6b 07 40 f0 12 93 40 7b b3 bc 3f
       5.2534523 2.1159334 4.5960617 1.4742273
0000d0 b1 e8 b6 3f 27 40 81 40 eb 74 8c 40 eb db 8f 40
       1.4289762 4.039081 4.389272 4.4955955
0000e0 39 e8 eb 3f 7c ca 57 3f 5c a8 3b 40 0c 78 86 3f
       1.8430244 0.8429334 2.9321508 1.0505385
0000f0 f7 75 5c 3e 18 24 57 40 78 44 12 40 fe 47 6c 40
       0.21529375 3.361578 2.285429 3.691894

layer_third.weight f4 [1, 64]
000000 10 13 7e 3c 57 62 31 38 59 86 bc 3c 76 ca a4 bd
       0.015507475 4.2291675e-05 0.02301328 -0.08046429
000010 c0 55 c6 3b ec ec c8 bd 94 80 6b 39 8b 83 68 3d
       0.0060527027 -0.09810814 0.00022459246 0.056766074
000020 0a c1 bb bd 0f 9a 33 bd f9 3b 5f bd 95 8a 85 bc
       -0.09167679 -0.043848094 -0.054500554 -0.016301433
000030 a9 fb a3 ba 56 d3 6d bd a9 e5 b8 3b 38 11 8b bc
       -0.0012510914 -0.058062874 0.005642612 -0.016975984
000040 6f 91 64 bd 32 49 0f 3a 29 62 81 3d 45 50 bf 3b
       -0.05580276 0.0005465924 0.06317551 0.0058384263
000050 2a 91 95 bd 24 f4 57 3d 29 83 74 3c 08 ea 06 bd
       -0.073030785 0.052723065 0.014923849 -0.032938033
000060 15 95 91 3d 9c 77 bc 38 c2 04 20 3d bc ea 31 3d
       0.07108513 8.9868176e-05 0.039067037 0.04343675
000070 62 e6 d3 ba 37 d3 83 3d 5c a3 a6 bd 13 f0 4b 3d
       -0.0016166682 0.064367704 -0.08136627 0.0497895
000080 6c aa b1 3c b1 91 1f 3d d8 d4 3b 3c c2 09 8d bd
       0.021687709 0.0389573 0.01146432 -0.06886627
000090 ae ad bb 3d 47 28 a1 39 cd d1 54 3d 31 44 b4 bd
       0.09163986 0.00030738322 0.051957894 -0.08802069
0000a0 a7 6a 4a bd 47 9e 8f 3c 14 b9 62 bd 3f 20 48 bd
       -0.049418118 0.017531527 -0.055352286 -0.048858877
0000b0 12 a8 92 3d a0 05 9c bd f3 96 bb ba 37 d8 b2 3c
       0.07160963 -0.076182604 -0.0014311954 0.021831615
0000c0 e4 53 45 3d 9e 44 d5 ba 6b 79 bd bd 1c 93 8f bd
       0.048175707 -0.001627106 -0.09251674 -0.07010481
0000d0 a8 d9 d1 3c 57 71 a9 bd e0 78 bb bd a8 ef d7 b9
       0.025616482 -0.08273571 -0.091539145 -0.00041186553
0000e0 6e 48 c6 3c 9a 91 aa bd 42 76 10 bd a8 89 2d 3c
       0.024204459 -0.083285525 -0.03526903 0.010591902
0000f0 00 44 b7 bd 00 d4 8e bd dc a6 d2 bc 6d de e9 3c
       -0.08948517 -0.069740295 -0.02571433 0.028548444
